3rd_exp/dqn_model_reward3.pth (torch, 16632 bytes, 8 tensors)

fc1.weight f4 [64, 9]
0	0x3d40ca3a	0.04706786
1	0xbe598778	-0.21243083
2	0xbf0a10cc	-0.5393188
3	0xbe42da1a	-0.19028512
4	0xbe0d6615	-0.13808472
5	0x3d934d52	0.07192482
6	0x3e21d3bf	0.15803431
7	0x3cf8a78e	0.030353334
8	0x3ef57250	0.47938776
9	0xbbf5264d	-0.0074813724
10	0x3d9d38fd	0.07676885
11	0xbe5b86f7	-0.21438204
12	0xbe13bd85	-0.14427765
13	0xbe492dfb	-0.19646446
14	0xbf101617	-0.56283706
15	0x3eb6eb3e	0.3572635
16	0xbd900720	-0.07032609
17	0xbf29fff1	-0.6640616
18	0xbeb0da66	-0.34541625
19	0xbd07d3a9	-0.03316084
20	0x3e517268	0.20453799
21	0x3eb7fdfd	0.35935965
22	0xbddb9418	-0.10721606
23	0xbf6d4338	-0.9268069
24	0xbec930ee	-0.39295143
25	0x3da0919f	0.07840275
26	0xbeb79de4	-0.35862648
27	0x3d326b3b	0.043559294
28	0xbde33be7	-0.1109541
29	0xbe59c66a	-0.21267095
30	0xbec069f1	-0.37580827
31	0x3e5b127c	0.2139377
32	0xbf390d8e	-0.7228631
33	0xbce03720	-0.027370036
34	0xbe9a3ce2	-0.30124575
35	0x3f76a8a5	0.9635108
36	0xbdc8e3e4	-0.09809092
37	0xbde79d3b	-0.11309286
38	0x3eda3334	0.4261719
39	0xbc9d2dd7	-0.019186897
40	0xbce43a02	-0.027859692
41	0x3c706b2b	0.014673988
42	0xbeab868c	-0.3350109
43	0xbeb26a03	-0.34846506
44	0x3e33fba9	0.1757647
45	0x3cc40e9c	0.023932748
46	0x3eb93eb6	0.36180657
47	0xbe86e3ae	-0.2634558
48	0x3dc71883	0.09721472
49	0x3e08dc26	0.1336523
50	0xbd2403da	-0.040042736
51	0xbeda5e39	-0.4265001
52	0xbdc2073e	-0.094740376
53	0xbf8ebab9	-1.1150733
54	0x3e0681f7	0.13135515
55	0xbe341253	-0.17585115
56	0xbea9f20d	-0.33192483
57	0xbdd70d04	-0.105005294
58	0x3eb7603f	0.35815617
59	0xbdfccf63	-0.123442434
60	0x3d22f7c4	0.03978707
61	0xbe9745d6	-0.29545468
62	0x3d8a5760	0.06754947
63	0x3e915855	0.28387704
64	0xbdf6d178	-0.12051672
65	0x3e4b80a1	0.19873287
66	0xbee21f0c	-0.44164312
67	0x3e2b99a5	0.1675783
68	0xbf597984	-0.84951043
69	0x3e9a8c78	0.30185294
70	0xbdc513f7	-0.096229486
71	0xbe5920c3	-0.21203904
72	0xbe8e9ffe	-0.2785644
73	0xbe2b5b44	-0.16734034
74	0xbddede86	-0.10882287
75	0x3dbe7436	0.09299509
76	0x3cfafe1d	0.030638749
77	0xbeb819bf	-0.35957143
78	0xbd51d023	-0.051223885
79	0xbe06e2e9	-0.13172497
80	0xbe29ed4d	-0.1659443
81	0xbe56c99f	-0.2097535
82	0x3e12a2a9	0.14319862
83	0xbf23f1ee	-0.6404103
84	0x3e837f2d	0.25682965
85	0xbddb0465	-0.106941976
86	0x3ece1720	0.40252018
87	0x3e5eaceb	0.2174565
88	0xbe981b0d	-0.29708138
89	0x3eee8dc4	0.46592534
90	0xbe9feaf0	-0.3123393
91	0xbea6eb05	-0.3260118
92	0xbdacba1d	-0.08433936
93	0xbe88b512	-0.26700646
94	0x3e2e9b1f	0.17051362
95	0xbeab9cfd	-0.3351821
96	0xbe097fbd	-0.13427635
97	0xbe3195db	-0.17342322
98	0xbf3c3f6d	-0.7353428
99	0x3ebdff34	0.37108767
100	0xbe368424	-0.17823845
101	0xbd5efbf2	-0.054439493
102	0x3d16d32a	0.036822475
103	0x3e2f3cff	0.17113112
104	0xbe53996c	-0.20663995
105	0xbe861ec6	-0.26195353
106	0xbdbe83ee	-0.09302507
107	0xbe5b3c7d	-0.21409793
108	0x3e08f16f	0.1337335
109	0xbe8963f5	-0.26834074
110	0xbf065634	-0.52475286
111	0x3d613be3	0.054988753
112	0x3ec85d72	0.39133793
113	0xbe79643a	-0.2435464
114	0xbb496f57	-0.003073653
115	0x3d82b7a7	0.06382685
116	0xbf500ecf	-0.81272596
117	0xbe3f0a34	-0.18656236
118	0xbea86e06	-0.3289644
119	0xbdd5c2f3	-0.10437574
120	0xbe291453	-0.1651166
121	0x3d405dd7	0.046964493
122	0x3e58e743	0.2118197
123	0xbea4521c	-0.32093894
124	0xbd3dc50c	-0.046330497
125	0x3f3bec07	0.73407024
126	0x3ddc1c1c	0.10747549
127	0x3d8e7a17	0.069568805
128	0xbd300b0c	-0.042979285
129	0xbe22a9f4	-0.15885144
130	0xbe051a92	-0.12998417
131	0x3e92efec	0.2869867
132	0x3ebaa510	0.36454058
133	0xbe29c30f	-0.16578315
134	0x3c5ea135	0.013588239
135	0x3eb7eaca	0.35921317
136	0x3c99e7b0	0.018787235
137	0x3e560c4b	0.20903127
138	0x3e6384f6	0.2221869
139	0x3ec54fd0	0.38537455
140	0x3d30f131	0.043198768
141	0x3ea4de4f	0.32200858
142	0x3e0e293c	0.13882917
143	0xbec9e540	-0.39432716
144	0x3e8877c4	0.26653874
145	0xbebec84c	-0.3726219
146	0x3d4aa5e4	0.049474612
147	0xbd9c2715	-0.07624642
148	0x3d07580b	0.03304295
149	0x3dd99f79	0.1062612
150	0xbe0fb5af	-0.1403415
151	0x3e37f008	0.17962658
152	0x3ed802b4	0.42189562
153	0xbe120042	-0.14257911
154	0x3e1d62a8	0.15369666
155	0xbeb756d4	-0.35808432
156	0x3ed7eb5a	0.42171746
157	0xbedef88d	-0.43549004
158	0x3d177bf2	0.036983438
159	0xbec64a09	-0.3872836
160	0x3e5e4d58	0.21709192
161	0xbdd3fdfd	-0.10351179
162	0xbdc5b0e8	-0.09652883
163	0x3e280795	0.16409142
164	0x3f6dde8c	0.92917705
165	0x3cb382dc	0.021912985
166	0xbd883160	-0.066500425
167	0x3c5525d8	0.013009511
168	0xbe8c7f13	-0.274407
169	0x3eba69a4	0.36408722
170	0x3f0521ef	0.52004904
171	0x3e99e938	0.30060744
172	0xbde6152c	-0.11234507
173	0xbeed758d	-0.46378747
174	0xbeae94e1	-0.3409796
175	0xbe6b217e	-0.22961995
176	0x3ee5001d	0.4472665
177	0x3db5609b	0.08856317
178	0xbea3e9ed	-0.3201441
179	0x3eb9f435	0.36319128
180	0xbdba0976	-0.09083836
181	0xbb31141d	-0.0027020045
182	0x3e7710d7	0.24127518
183	0x3e900065	0.281253
184	0x3dcb5dd2	0.09930004
185	0x3e388fad	0.18023558
186	0x3e4f9047	0.20269881
187	0xbe9a4ebe	-0.301382
188	0x3fc8cb73	1.5687088
189	0x3deb045a	0.11475439
190	0x3d5cf21a	0.053941824
191	0x3d281a0a	0.041040458
192	0x3e90509f	0.2818651
193	0x3e7f7334	0.2494629
194	0xbecb9e4c	-0.39769208
195	0x3c08474d	0.008317781
196	0x3d1c9b69	0.03823415
197	0x3f0b54d6	0.54426324
198	0xbd9353b5	-0.071937
199	0xbe81f735	-0.25383916
200	0xbdf49b6b	-0.11943706
201	0x3e1f65f1	0.15566231
202	0xbe81b5f3	-0.2533413
203	0x3cf8f688	0.030390993
204	0x3e1890d5	0.14898999
205	0x3ea52b3a	0.32259542
206	0x3e7dd9b7	0.24790083
207	0xbed9f04f	-0.42566153
208	0xbe0ce9a0	-0.13760996
209	0x3edaf324	0.42763627
210	0x3d490897	0.049080458
211	0xbd89a8cd	-0.06721649
212	0xbf254c55	-0.645696
213	0xbe740bcc	-0.23832625
214	0xbe6e04ad	-0.23243971
215	0x3e8cf726	0.2753231
216	0x3ea9a979	0.3313711
217	0x3e87066d	0.2637209
218	0x3cbdda53	0.023175394
219	0x3e5cea15	0.2157367
220	0x3e40c180	0.18823814
221	0x3e65d3a6	0.22444019
222	0xbc926049	-0.017868178
223	0xbeb69b1a	-0.35665208
224	0xbc2f5850	-0.010702208
225	0x3d7a191d	0.061059106
226	0x3eb30c3c	0.34970272
227	0x3e968901	0.294014
228	0x3d1437de	0.03618609
229	0xbe6c29d5	-0.23062833
230	0x3d8d240f	0.06891643
231	0x3e9b3ade	0.3031835
232	0x3ebf4e89	0.37364605
233	0xbfcea8a3	-1.6145214
234	0xbe13ee28	-0.14446318
235	0xbe2281b1	-0.15869786
236	0x3d5a1b67	0.05324879
237	0x3cff5055	0.031166235
238	0x3e18c936	0.14920506
239	0x3effbc7f	0.499485
240	0xbe64aa2d	-0.22330542
241	0xbeb7c2f0	-0.35890913
242	0xbdd90a94	-0.10597721
243	0xbe40cf70	-0.18829131
244	0x3eeab7e2	0.45843416
245	0x3e748a95	0.2388099
246	0xba6e169b	-0.0009082348
247	0x3d9739d7	0.07384079
248	0xbe831d15	-0.25608125
249	0x3e381569	0.17976917
250	0x3e23f069	0.16009678
251	0x3f4964c3	0.78669375
252	0xbe9d3389	-0.3070338
253	0xbdf46113	-0.11932578
254	0xbf129aea	-0.5726763
255	0xbdad36c3	-0.084577106

fc1.bias f4 [64]
0	0x3ed49581	0.41520312
1	0xbecdbad7	-0.4018161
2	0xbf2e5a8a	-0.681069
3	0xbea2cd99	-0.31797484
4	0x3e9ec62d	0.3101057
5	0x3e29eec9	0.16594996
6	0xbea058bb	-0.31317696
7	0xbde691c3	-0.112582706
8	0x3ce2650a	0.02763607
9	0xbd051010	-0.03248602
10	0xbda98b43	-0.08278515
11	0xbf1d3e43	-0.6142313
12	0xbe093ffe	-0.13403317
13	0x3ea84f51	0.32873014
14	0xbe2ef8a2	-0.17087033
15	0x3ebd2b71	0.36947206
16	0x3e34474d	0.17605324
17	0xbe2a9739	-0.1665925
18	0x3e15876e	0.14602444
19	0x3f411d70	0.75435543
20	0x3d125729	0.035727654
21	0x3ec6c919	0.388253
22	0xbdd11e2f	-0.10210835
23	0x3ea7c5d8	0.3276813
24	0x3c94ec28	0.018179014
25	0xbe457eaf	-0.19286607
26	0xbe30fac5	-0.17283161
27	0xbf0dd434	-0.5540192
28	0x3eddf89e	0.43353742
29	0x3e6fb04a	0.23407093
30	0xbe6937c6	-0.22775182
31	0x3ebef823	0.37298688
32	0xbdad89d4	-0.08473554
33	0xbe35df38	-0.17760932
34	0xbea36f47	-0.31920835
35	0xbf10a505	-0.565018
36	0xbd868b66	-0.06569557
37	0x3dbfa501	0.09357644
38	0x3e61a624	0.22036034
39	0xbed87f5b	-0.42284665
40	0xbd672bc6	-0.05643823
41	0x3f21f7ba	0.63268626
42	0xbc4636df	-0.012098043
43	0xbe73607e	-0.23767278
44	0x3e2ac2f0	0.16675925
45	0x3edf7735	0.43645635
46	0xbe7e94a7	-0.24861394
47	0xbec1d040	-0.37854195
48	0xbd8420fd	-0.064516045
49	0x3ec58097	0.3857467
50	0x3e533be8	0.20628321
51	0x3e9752cb	0.29555354
52	0xbe6826c2	-0.22671035
53	0x3d83016f	0.06396758
54	0xbe9d16cf	-0.30681464
55	0xbeffef6b	-0.4998735
56	0xbd71837f	-0.058963295
57	0x3e257e56	0.16161475
58	0x3e52517e	0.205389
59	0xbda834d7	-0.082132034
60	0x3eb81aef	0.3595805
61	0x3ebd4218	0.36964488
62	0x3ea35417	0.31900093
63	0x3ea5f11f	0.32410523

fc2.weight f4 [32, 64]
0	0x3b8271c5	0.0039808475
1	0xbd8e9924	-0.06962803
2	0xbde3da96	-0.11125676
3	0xbd3e3fff	-0.04644775
4	0x3e4067b6	0.18789563
5	0x3dc263b2	0.094916716
6	0x3e37b8db	0.1794161
7	0xbe6f8a39	-0.23392572
8	0x3dbde039	0.09271283
9	0xbc0b474f	-0.008500888
10	0xbe8adf73	-0.27123603
11	0x3dc897f6	0.09794609
12	0x3cbcc0a8	0.023041084
13	0x3dd1eadb	0.10249873
14	0x3db8da22	0.090259805
15	0x3e569097	0.20953594
16	0x3de9e03f	0.11419725
17	0x3cf8dbe0	0.030378282
18	0xbf4d3668	-0.8016114
19	0x3e0aa9e0	0.13541365
20	0xbdb30452	-0.087410584
21	0x3da95ce1	0.08269668
22	0x3d968141	0.07348872
23	0x3e647cef	0.22313283
24	0xbec1dedd	-0.37865344
25	0xbe1cc8d3	-0.15310983
26	0xbb9fafe6	-0.0048732636
27	0xbe583bd5	-0.21116574
28	0x3e6d3fb4	0.23168832
29	0x3e58b001	0.2116089
30	0xbedbf248	-0.42958283
31	0x3e481c48	0.19542038
32	0xbf15d08c	-0.5852134
33	0xbe4addb3	-0.19811134
34	0xbdf0fb4a	-0.117666796
35	0x3cbd1c5d	0.023084814
36	0xbea419bc	-0.32050884
37	0xbe1f57f9	-0.15560903
38	0xbc9dddc1	-0.01927078
39	0x3da20322	0.07910754
40	0xbe93a781	-0.28838733
41	0x3e4173e6	0.18891868
42	0x3e068449	0.131364
43	0xbe1a515b	-0.15070097
44	0x3d39ead1	0.045389954
45	0x3e9caac4	0.30599034
46	0x3d25cc6b	0.04047815
47	0xbf0b16f1	-0.5433188
48	0xbdde1cf6	-0.108453676
49	0x3e584e20	0.21123552
50	0x3e38a859	0.1803297
51	0x3e4dc6d5	0.2009538
52	0xbf3a11cd	-0.7268341
53	0xbe583be5	-0.21116598
54	0x3ded4db3	0.115870856
55	0xbd6002b0	-0.054690063
56	0xbf17b792	-0.5926448
57	0xbdc83ede	-0.09777616
58	0x3e31649c	0.17323536
59	0xbe657e1d	-0.2241139
60	0xbdf5cf09	-0.120023794
61	0x3dfbe190	0.12298882
62	0x3d99ecb1	0.075158484
63	0xbe9061cf	-0.28199622
64	0xbd4006ef	-0.046881612
65	0xbe629bf0	-0.22129798
66	0x3c8f4cc5	0.017492661
67	0x3bbb44ea	0.0057150023
68	0x3d7c0bea	0.0615348
69	0xbea7fa75	-0.3280827
70	0x38bed3aa	9.0993315e-05
71	0xbddfb65d	-0.10923455
72	0xbdf1e80f	-0.1181184
73	0xbe2c860a	-0.16848007
74	0xbd5fc0db	-0.05462728
75	0x3def9714	0.11698738
76	0x3e26bad0	0.16282201
77	0x3c2062fb	0.009789224
78	0xbdae9f68	-0.08526498
79	0xba84c101	-0.001012832
80	0x3e6e86a3	0.23293547
81	0x3dd8081d	0.105484225
82	0xbdb4b586	-0.08823685
83	0x3cd945b2	0.026522491
84	0xbe884e7c	-0.2662238
85	0xbd58fdfb	-0.05297659
86	0x3e01c7f0	0.12673926
87	0xbd389d0f	-0.045071658
88	0xbe002916	-0.12515673
89	0xbe80cd8a	-0.25156814
90	0xbdd7bfde	-0.10534643
91	0xbde69013	-0.11257949
92	0xbe0066f3	-0.12539272
93	0xbdc09662	-0.09403683
94	0x3eb42b77	0.3518941
95	0xbd88504e	-0.06655942
96	0xbecf2abf	-0.404623
97	0x3d11ad45	0.035565633
98	0xbdb5e629	-0.0888179
99	0x3d175ac0	0.03695178
100	0x3df36de4	0.11886194
101	0x3e558735	0.20852359
102	0x3d95fbe6	0.073234364
103	0xbc3091d1	-0.010776953
104	0xbd53fc51	-0.0517543
105	0xbc40bbaf	-0.011763497
106	0x3d66eada	0.056376316
107	0x3e50b437	0.20381247
108	0xbdcdfb4e	-0.10057698
109	0xbdcefdfe	-0.10107039
110	0x3e109f12	0.1412318
111	0x3d8afadd	0.067861296
112	0x3de03358	0.10947293
113	0x3db0fdef	0.08642184
114	0x3d830732	0.06397857
115	0xbcf89f96	-0.030349534
116	0xbd4802c5	-0.048830766
117	0xbcd6f700	-0.026240826
118	0x3d587d48	0.052853853
119	0xbe3c7366	-0.18403396
120	0xbda2d909	-0.079515524
121	0xbbfdc688	-0.007744614
122	0x3ddd339b	0.108008586
123	0x3d8a46d7	0.06751793
124	0xbf036ed7	-0.51341003
125	0x3dee6fcd	0.11642418
126	0x3d853678	0.0650453
127	0x3de06359	0.10956449
128	0xbcd13ef6	-0.025542717
129	0xbd111939	-0.035424445
130	0xbf3bc52a	-0.73347723
131	0xbd35570d	-0.04427247
132	0x3e41955f	0.18904637
133	0x3de19857	0.11015385
134	0x3dc22f7a	0.09481712
135	0xbf02b016	-0.51049936
136	0x3e516c7b	0.20451538
137	0x3d545309	0.051837
138	0x3daa9ee0	0.08331084
139	0x3ad218f7	0.0016029169
140	0xbdf87b23	-0.121328615
141	0x3c471fa9	0.012153544
142	0xbdaea81a	-0.085281566
143	0x3c820643	0.015872126
144	0xbd85eea0	-0.06539655
145	0xbc02bdf6	-0.0079798605
146	0xbe2ea882	-0.17056468
147	0x3cb09141	0.021553637
148	0x3ddcea75	0.10786907
149	0x3da8d3f8	0.08243555
150	0x3d901d3e	0.070368275
151	0xbe9c54cb	-0.30533442
152	0xbe93c599	-0.28861693
153	0x3dba8f3d	0.09109352
154	0x3eb474b3	0.35245284
155	0xbea6328b	-0.32460436
156	0x3e3aeb99	0.18253936
157	0x3e24139a	0.16023102
158	0xbe71e882	-0.23623851
159	0x3ea1ce02	0.31602484
160	0xbf0afd6b	-0.54292935
161	0xbf6e4c8d	-0.9308556
162	0xbe86a9a1	-0.26301292
163	0xbe7e7578	-0.24849498
164	0xbe8898f7	-0.26679203
165	0xbd803f9b	-0.06262132
166	0x3debb545	0.11509184
167	0xbd7eb40d	-0.06218343
168	0xbe364082	-0.17798045
169	0x3d68ca33	0.056833457
170	0xbd8c8126	-0.068605706
171	0xbe487961	-0.19577552
172	0x3db3521d	0.08755896
173	0x3ddc0044	0.10742238
174	0xbec1ea73	-0.37874183
175	0xbec03b0d	-0.37545052
176	0xbea320cc	-0.3186096
177	0xbcdfa445	-0.02730001
178	0x3d23c6d2	0.03998453
179	0x3e807fac	0.25097406
180	0xbf637c4c	-0.88861537
181	0xbe8619cd	-0.2619156
182	0x3e0e343e	0.13887116
183	0xbf129fe7	-0.5727524
184	0xbf2e22a5	-0.68021613
185	0x3e6bd009	0.23028578
186	0x3d937760	0.07200503
187	0x3e0d7bf9	0.13816823
188	0x3e835b79	0.25655726
189	0x3cbe35b6	0.02321897
190	0x3e089a3d	0.13340087
191	0xbe692877	-0.22769342
192	0xbc3c2770	-0.011484012
193	0x3e3e5020	0.18585253
194	0x3bf084f2	0.007340067
195	0x3de14efe	0.11001395
196	0x3d87a0ee	0.06622492
197	0xbe875e3b	-0.2643908
198	0x3d796d4d	0.060895253
199	0x3e9aa565	0.3020431
200	0x3ca28e0e	0.019843128
201	0x3e1d73ac	0.15376157
202	0xbd4998c8	-0.04921797
203	0x3dff7021	0.12472559
204	0xbc626e07	-0.013820178
205	0x3cddc504	0.027071483
206	0xbd29803e	-0.041382067
207	0xbe495900	-0.19662857
208	0x3d02f33e	0.031970255
209	0xbcb72add	-0.022359306
210	0x3e25672a	0.16152635
211	0x3dd453b9	0.10367531
212	0x3d8cb44f	0.06870329
213	0xbe5dae0d	-0.21648426
214	0x3c08483b	0.008318002
215	0xbe42ccda	-0.19023457
216	0x3e825e6b	0.2546266
217	0x3e92424a	0.285662
218	0xbd11ccc9	-0.03559569
219	0xbce966c5	-0.028491387
220	0xbdd30492	-0.10303606
221	0xbd612039	-0.05496237
222	0x3e5a4ed7	0.21319138
223	0xbe8051bf	-0.25062367
224	0xbe19d56f	-0.15022825
225	0xbc9952eb	-0.018716296
226	0x3e263e92	0.16234806
227	0x3eb1d7b5	0.34734884
228	0x3e260621	0.16213275
229	0x3e583d39	0.21117105
230	0xbd00f222	-0.031480916
231	0xbdbf131b	-0.09329816
232	0x3ea681a4	0.32520783
233	0xbdab753e	-0.083719715
234	0xbdca1a7d	-0.098683335
235	0x3e9a302b	0.30114874
236	0x3c2d2dee	0.0105700325
237	0x3ce546bd	0.027987832
238	0x3e921c08	0.2853701
239	0x3d94b700	0.07261467
240	0xbe353fb7	-0.17700087
241	0x3d8cbaae	0.06871544
242	0x3c454865	0.012041186
243	0xbe32b8eb	-0.17453353
244	0x3e9b981b	0.30389485
245	0x3e6d49c6	0.23172674
246	0x3dfc8c37	0.12331431
247	0x3e06406e	0.13110515
248	0x3dd73e5b	0.1050994
249	0x3cc63a75	0.024197796
250	0xbbdea208	-0.006794218
251	0xbdcbfee2	-0.099607244
252	0xbd9fd7b1	-0.07804812
253	0x3d59e468	0.05319634
254	0xbdb107f8	-0.08644098
255	0xbe233f23	-0.15942053

fc2.bias f4 [32]
0	0x3efe0a5e	0.49617285
1	0x3c7fa4cd	0.015603256
2	0x3f03bbbe	0.51458347
3	0xbea4d6c4	-0.32195103
4	0xbdd1185d	-0.10209725
5	0x3ead687c	0.33868778
6	0x3e5b2fe4	0.21404988
7	0xbe08d5ce	-0.1336281
8	0x3df09255	0.117466606
9	0x3ecae06b	0.39624342
10	0xbe8cf93e	-0.27533907
11	0xbe0a3fc2	-0.13500884
12	0xbe86c5c4	-0.26322758
13	0x3cb8a31e	0.022538718
14	0x3ea779bf	0.32710072
15	0x3d4529a3	0.04813541
16	0x3d8c1c2f	0.06841313
17	0x3ec93ee0	0.39305782
18	0xbef5e16f	-0.48023555
19	0xbd15bf7a	-0.03655956
20	0x3d757b79	0.059932206
21	0x3d33a410	0.043857634
22	0x3e15d61f	0.14632462
23	0xbde8f699	-0.1137516
24	0x3cb1813a	0.021668065
25	0x3c8bae1f	0.0170508
26	0x3ce06975	0.027394036
27	0x3ebc87cb	0.36822352
28	0xbe4debff	-0.20109557
29	0x3d752f40	0.059859514
30	0xbd2c5064	-0.042068854
31	0xbd66f076	-0.056381665

fc3.weight f4 [16, 32]
0	0xbe0affb6	-0.13574108
1	0xbe6d4a73	-0.23172931
2	0xbe2af983	-0.16696744
3	0x3db04011	0.0860597
4	0xbd275086	-0.040848278
5	0xbc28ec73	-0.01031028
6	0xbd665ceb	-0.056240957
7	0xbe06f38a	-0.1317884
8	0xbe89edad	-0.26939145
9	0x3deb2d3f	0.114832394
10	0xbdaa7734	-0.083235174
11	0xbe8dfc4f	-0.2773156
12	0xbce1d3a5	-0.02756674
13	0xbc3076c9	-0.010770508
14	0x3e07280a	0.13198867
15	0x3d9d89ae	0.07692276
16	0xbd0c078c	-0.034186885
17	0xbe32de35	-0.17467578
18	0xbd1bb918	-0.038018316
19	0xbe058d93	-0.13042288
20	0xbe8c5573	-0.27408943
21	0xbe35f625	-0.17769678
22	0xbe791529	-0.24324478
23	0xbe319dd5	-0.17345364
24	0x3da73a6f	0.08165442
25	0x3e1b76ef	0.15182088
26	0xbdb019fa	-0.08598705
27	0xbe5c6997	-0.21524654
28	0xbed387bc	-0.41314495
29	0xbeb5b98e	-0.3549313
30	0x3da3e9c5	0.080035724
31	0x3ca64193	0.02029494
32	0x3ecd1860	0.4005766
33	0xbed4ef79	-0.41588953
34	0x3eb4d95c	0.35322082
35	0xbea8ed4d	-0.32993546
36	0xbebd3bf7	-0.36959812
37	0x3e83072f	0.25591418
38	0x3daa9ce5	0.083307065
39	0xbe31a295	-0.17347176
40	0x3e0d047e	0.13771245
41	0x3e6ea477	0.23304926
42	0xbe88415d	-0.26612368
43	0xbe20b80e	-0.15695211
44	0xbed0f7ee	-0.40814155
45	0xbf25de87	-0.64792675
46	0x3ebac681	0.3647957
47	0x3d8db2ca	0.06918867
48	0xbdb69df0	-0.08916843
49	0x3e7241a7	0.23657857
50	0xbec1df4e	-0.3786568
51	0xbe08dc44	-0.13365275
52	0x3df66c46	0.1203237
53	0x3f1156de	0.56773174
54	0xbe4ba838	-0.19888389
55	0x3dcc4fdf	0.09976172
56	0x3f11a7b1	0.568965
57	0xbbee541d	-0.0072732107
58	0x3ea05346	0.31313533
59	0x3eb545b7	0.3540475
60	0xbe8cef7e	-0.27526468
61	0xbd079624	-0.03310217
62	0xbcc50cbd	-0.024053926
63	0xbe6b5889	-0.22982992
64	0x3d4c1de4	0.049833193
65	0xbd0d8ce7	-0.034558203
66	0xbe7294f3	-0.23689632
67	0xbcdd2fdb	-0.027000358
68	0x3de2b527	0.11069708
69	0xbd44d9e4	-0.04805936
70	0xbdc9f815	-0.09861771
71	0x3de41e0b	0.11138543
72	0x3bacefde	0.005277618
73	0xbb00aa55	-0.0019632776
74	0xbde08566	-0.10962944
75	0xbc57c60f	-0.013169779
76	0x3d1c4759	0.03815398
77	0x3d593117	0.05302533
78	0xbd90df86	-0.07073884
79	0xbe8abbea	-0.27096492
80	0xbd263f70	-0.040587842
81	0xbd879934	-0.06621018
82	0xbd8ee586	-0.06977372
83	0xbd921299	-0.071324535
84	0x3da00bf8	0.07814783
85	0xbe0231cc	-0.12714309
86	0x3cc43f72	0.023956034
87	0x3d3917fe	0.045188896
88	0xbd089676	-0.033346616
89	0xbe03416f	-0.1281793
90	0xbe2110f4	-0.15729123
91	0xbda14486	-0.07874398
92	0x3d254c12	0.04035575
93	0xbde572c1	-0.11203528
94	0xbdc7553f	-0.09733056
95	0xbc5ea041	-0.013588012
96	0x3de1ae82	0.11019613
97	0x3de93b3a	0.1138825
98	0xbcb4b4cd	-0.022058869
99	0x3e1ab338	0.15107429
100	0x3eb451a1	0.35218528
101	0x3e540ec3	0.20708756
102	0xbe15dea6	-0.14635715
103	0x3ce90645	0.028445372
104	0xbe4d7dbc	-0.20067495
105	0xbe0a62eb	-0.13514297
106	0x3e032f4e	0.12811014
107	0xbe8b0c89	-0.27158
108	0x3e10d748	0.14144623
109	0x3e74a918	0.23892629
110	0xbe7ce417	-0.24696384
111	0x3e945902	0.28974158
112	0x3dacfa0d	0.08446131
113	0xbd2ca8a2	-0.04215301
114	0x3e2fa201	0.17151643
115	0x3c958858	0.01825349
116	0xbcf6d729	-0.030131893
117	0xbe9ab9d3	-0.30219898
118	0x3e065276	0.13117394
119	0xbe26088d	-0.162142
120	0xbee68f2b	-0.45031103
121	0x3e8c1d3e	0.2736606
122	0x3d380cda	0.04493413
123	0x3e0b311a	0.1359295
124	0x3e8f3958	0.27973437
125	0x3e2eb816	0.1706241
126	0x3dbf7a8b	0.09349545
127	0x3e032b3b	0.1280946
128	0xbdd8e31d	-0.105901934
129	0xbe29f1f2	-0.16596201
130	0x3d410ffa	0.047134377
131	0xbca5df01	-0.020247938
132	0xbe026647	-0.12734328
133	0x3e573b43	0.210187
134	0x3daf048e	0.085457906
135	0xbe42a899	-0.19009627
136	0x3e67c6d9	0.22634448
137	0xbd1e1cab	-0.03860156
138	0xbc13bba2	-0.009016903
139	0x3df1f096	0.11813466
140	0xbd38b395	-0.045093138
141	0xbe137041	-0.1439829
142	0x3d3aca3b	0.04560302
143	0x3da5286c	0.080643505
144	0xbe396402	-0.18104556
145	0x3d05165e	0.032492034
146	0xbe261d79	-0.1622218
147	0xbe8e1460	-0.2774992
148	0x3d31c218	0.043397993
149	0x3e189fb9	0.1490468
150	0x3da2e6f4	0.07954207
151	0x3e0df715	0.13863786
152	0x3ddcb249	0.10776193
153	0xbe84c3a9	-0.25930527
154	0x3d92cdf3	0.07168188
155	0x3ddfe3d8	0.109321296
156	0xbdecee1f	-0.115688555
157	0x3d03d8de	0.032189243
158	0xbdf6c87e	-0.120499596
159	0x3c9a15ef	0.018809287
160	0xbd7561e8	-0.059907824
161	0xbe830ccb	-0.25595698
162	0x3cc368a9	0.023853617
163	0xbdd182b8	-0.10230011
164	0x3d22752b	0.03966252
165	0x3c3d27fe	0.011545179
166	0x3e41828b	0.18897454
167	0x3dd4dbee	0.10393511
168	0xbd67ee46	-0.05662372
169	0x3df8b181	0.12143231
170	0xbe9575eb	-0.29191527
171	0x3c3e946a	0.011632064
172	0xbed6e553	-0.41971835
173	0xbe2a6714	-0.16640884
174	0x3e6bfe7f	0.23046301
175	0xbe024bef	-0.12724279
176	0x3d3f9a5e	0.046778075
177	0x3dd2934a	0.102819994
178	0xbf2a5416	-0.66534555
179	0x3dde397f	0.1085081
180	0x3e17effd	0.14837642
181	0xbecf89c8	-0.40534806
182	0x3e21fd7d	0.15819354
183	0xbdc1b5b4	-0.09458485
184	0xbd80f05c	-0.06295845
185	0x3a20bce7	0.0006131664
186	0xbd6f20a6	-0.058380745
187	0xbd11719e	-0.035508744
188	0xbbbffbcb	-0.0058588735
189	0xbc3f0987	-0.011659986
190	0xbe7a7d91	-0.24461962
191	0xbec36d4b	-0.3816932
192	0x3d256c38	0.04038641
193	0x3e051f62	0.13000253
194	0x3e6078c4	0.21921068
195	0xbe9df401	-0.30850223
196	0xbbea9cb2	-0.007159793
197	0x3e067e1c	0.13134044
198	0x3e60dc55	0.2195905
199	0x3e570c3a	0.21000758
200	0x3e2bcd6b	0.1677758
201	0x3e54337d	0.20722766
202	0xbe1acc86	-0.15117082
203	0x3d69bf82	0.0570674
204	0xbe3a174a	-0.18172947
205	0xbeae3b3e	-0.34029573
206	0x3e42bb97	0.19016872
207	0xbd56e439	-0.052463744
208	0xbd134cd0	-0.035961926
209	0xbd397af1	-0.04528326
210	0xbeaec169	-0.34131935
211	0xbe9c9a5e	-0.30586523
212	0x3d97dbe0	0.07414985
213	0x3e0e5c6d	0.13902445
214	0xbebc2794	-0.36748946
215	0x3c12e58a	0.008965859
216	0xbe2929b1	-0.1651981
217	0xbdc25cd5	-0.094903626
218	0x3d4cf177	0.050034966
219	0xbd0bf5b3	-0.034169864
220	0xbec6e127	-0.38843653
221	0xbdd46742	-0.10371257
222	0xbe40ffac	-0.18847531
223	0xbedcf560	-0.43155956
224	0x3e02eec6	0.12786397
225	0x3dde2aca	0.10848005
226	0xbc3273ab	-0.010891835
227	0xbe1988b6	-0.14993557
228	0xbdd71117	-0.105013065
229	0x3e03a7d9	0.12856998
230	0xbdfa74e3	-0.122293256
231	0xbe017afa	-0.12644568
232	0x3d9dd1fc	0.07706067
233	0xbdba0708	-0.09083372
234	0xbe21c506	-0.15797815
235	0x3de35b45	0.11101393
236	0x3dcbab1e	0.099447474
237	0xbe148874	-0.14505178
238	0x3db1170c	0.08646974
239	0xbe385656	-0.18001685
240	0x3d98773a	0.07444616
241	0xbe06d7cc	-0.13168257
242	0xbcfbb810	-0.030727416
243	0xbdfe24ba	-0.12409349
244	0xbdde75af	-0.1086229
245	0x3c4261c0	0.011864126
246	0xbe0f5ace	-0.13999483
247	0x3def4889	0.11683757
248	0xbdd3324d	-0.103123285
249	0x3debb8ea	0.11509879
250	0xbd9b015a	-0.07568617
251	0xbdc38228	-0.0954631
252	0xbd3c02fc	-0.045901284
253	0xbd72d446	-0.05928447
254	0x3d1699f4	0.036767915
255	0xbd2e1a64	-0.042505637

fc3.bias f4 [16]
0	0xbe331c12	-0.17491177
1	0x3f2da2b6	0.678264
2	0x3d5913e3	0.05299748
3	0xbe98ec75	-0.29867902
4	0x3e162657	0.14663063
5	0x3ecd5059	0.40100363
6	0x3edb11d7	0.42787048
7	0x3c61087c	0.013734933
8	0x3e6bc1ad	0.230231
9	0xbd89b8a9	-0.06724674
10	0x3dc63841	0.09678698
11	0x3e7b1578	0.24519908
12	0x3eac8a39	0.33699206
13	0xbd625239	-0.055254195
14	0x3d496b03	0.04917432
15	0xbe81c119	-0.25342634

fc4.weight f4 [5, 16]
0	0xbe0da0e9	-0.13830914
1	0x3e943d42	0.28952986
2	0xbe6d4c14	-0.23173553
3	0xbe2baec8	-0.16765893
4	0x3e72f282	0.23725322
5	0x3eb211d0	0.34779215
6	0x3e8da6f3	0.27666435
7	0xbbdf2980	-0.006810367
8	0x3e800a9c	0.25008094
9	0xbd527231	-0.051378433
10	0x3e460a53	0.19339876
11	0x3e01fea8	0.126948
12	0x3e563aed	0.20920916
13	0xbd936dda	-0.07198687
14	0xbe1422d3	-0.1446641
15	0xbe62c668	-0.22145998
16	0x3d8cbdca	0.06872137
17	0x3e8aab64	0.27083886
18	0x3e46f44a	0.19429126
19	0xbe23a835	-0.15982135
20	0x3e348f44	0.17632776
21	0x3e51e152	0.20496109
22	0x3e09aa3b	0.13443844
23	0xbd1543b0	-0.036441505
24	0x3e908b30	0.28231192
25	0x3d6b8d33	0.057507705
26	0xbc2f96f3	-0.010717141
27	0x3e5ed8a2	0.21762326
28	0x3e60738b	0.21919076
29	0x3ddf323b	0.108982526
30	0x3c0199a0	0.007910162
31	0xbd04ff65	-0.032470126
32	0xbd76456a	-0.060124792
33	0x3e956d9a	0.29185182
34	0x3c9f178b	0.019420406
35	0xbe2553ac	-0.161452
36	0x3da2453b	0.07923361
37	0x3e28a67e	0.16469762
38	0x3e5bacc0	0.21452618
39	0xbe74ae28	-0.2389456
40	0x3ed04480	0.4067726
41	0xbd2dcdfd	-0.042432774
42	0x3e16502f	0.14679025
43	0x3cbb0430	0.022829145
44	0x3e11659c	0.14198917
45	0x3e011fd8	0.12609804
46	0xbe000e21	-0.1250539
47	0xbe1f5bfc	-0.15562433
48	0xbd9201b4	-0.07129231
49	0x3e7c4c0b	0.24638383
50	0xbdc5f4d3	-0.09665837
51	0xbe3847d8	-0.17996156
52	0x3ded0ecc	0.11575088
53	0x3e9ea8ce	0.30988163
54	0x3e28e340	0.16492939
55	0xbe07f0e2	-0.13275483
56	0x3e5b7c4f	0.21434139
57	0xbe34de67	-0.17662965
58	0x3df4ab1d	0.119467
59	0x3e47a45f	0.19496296
60	0x3e46f961	0.19431068
61	0x3e581ca4	0.21104676
62	0xbd935f31	-0.07195891
63	0xbe064c87	-0.1311513
64	0xbedc7fa4	-0.43066132
65	0x3ea8266c	0.32841814
66	0x3e29b960	0.16574621
67	0xbe5590a4	-0.20855957
68	0xbe09f8e0	-0.13473845
69	0xbac0ccea	-0.0014709507
70	0x3e926f16	0.28600377
71	0xbe5aecda	-0.21379414
72	0x3e8dd049	0.2769797
73	0xbe2f73be	-0.17133996
74	0xbe06697f	-0.13126181
75	0x3df58637	0.1198849
76	0x3d3d6930	0.046242893
77	0x3e45e4bf	0.19325541
78	0x3e499cc8	0.19688714
79	0x3a8558af	0.0010173524

fc4.bias f4 [5]
0	0x3df0ebca	0.11763723
1	0xbdcf2f0c	-0.10116395
2	0x3ef2b732	0.47405392
3	0x3ed40ed3	0.4141756
4	0xbd9c769d	-0.07639811
