2nd_exp/dqn_model_reward2.pth (torch, 16632 bytes, 8 tensors)

fc1.weight f4 [64, 9]
000000 cf 98 37 3e 95 d2 9f 3d b8 11 8e be eb 92 15 bf
       0.17929386 0.07803837 -0.27747893 -0.58427304
000010 c8 fa 99 bd ae 0a 73 be 9d ea c9 3d 5a 6c 74 3d
       -0.07518536 -0.23734543 0.09859202 0.059673645
000020 e4 8d b3 bd 5d 43 0f be a9 86 c8 3c b1 6b 32 be
       -0.08767298 -0.13990541 0.024478273 -0.17423894
000030 c4 96 9d be a9 a8 ef bd 9e f9 c6 3e e9 ca 93 3e
       -0.30779088 -0.11702091 0.38862318 0.28865746
000040 46 6c 50 3e f8 d0 87 3e dd 97 92 be d4 26 b8 be
       0.20353803 0.26526618 -0.28631487 -0.35967124
000050 b7 05 6e be 48 d4 ca 3e d5 1a 2f 3d e9 39 f9 bd
       -0.23244368 0.39615083 0.0427502 -0.121692486
000060 99 d5 87 3e a5 98 37 3d d1 f4 89 3c 98 97 91 3d
       0.2653015 0.044823308 0.01684037 0.07108992
000070 a6 9e 60 be fe f8 9b bd 89 ef e9 3e 7b 9b 89 be
       -0.2193552 -0.07615851 0.45690563 -0.26876435
000080 71 f2 fc 3e fd 2c 8e bc b9 75 8c bc 60 e2 a3 bd
       0.49403718 -0.017355436 -0.017145978 -0.08002162
000090 1e 89 a5 3e ea 9f 9d 3e 20 2d 68 3e c0 2c 96 3e
       0.32331175 0.30786067 0.22673464 0.29331017
0000a0 a5 73 26 bc 89 f9 15 3f 78 a3 98 3d f4 29 9f 3d
       -0.010159408 0.58583885 0.07453054 0.07771674
0000b0 56 52 67 3e df 65 d4 bd 1e e7 94 bd ed ef d3 3e
       0.22590002 -0.10370993 -0.072706446 0.41393986
0000c0 c0 df 07 be 51 a4 76 3e 1c 48 03 3f 90 c3 39 3d
       -0.13268948 0.24086119 0.51281905 0.04535252
0000d0 65 c9 42 3e bb 9f 5d 3d e7 05 cb 3d db 80 c1 3e
       0.19022138 0.05410741 0.09913235 0.3779362
0000e0 5f c9 c8 3e 0e 43 d5 be 36 69 d0 3a 78 00 cf 3a
       0.39216134 -0.4165272 0.0015900496 0.0015792986
0000f0 78 ce af 3e 74 bb de 3c 65 b3 1a be 64 ab 9a bd
       0.3433721 0.027188994 -0.15107496 -0.075522214
000100 b0 4a 21 3d 11 8d 29 bd 75 d9 c8 be e1 c4 81 bd
       0.03937787 -0.041394297 -0.39228407 -0.0633638
000110 c5 63 11 3d 1d 37 3a 3e c0 8d a0 bd c6 85 e9 be
       0.03549554 0.18185087 -0.07839537 -0.45609874
000120 e4 66 35 3a 48 05 91 3e 3c e0 87 be f5 12 51 be
       0.0006919934 0.28324342 -0.26538265 -0.20417388
000130 2b 39 d6 3d b5 fa 09 bf 0f 4f 83 be 20 af 9f be
       0.10460123 -0.53898174 -0.25646254 -0.31188297
000140 44 6c 8b bd 5f a8 c5 3c 4d f0 1a 3e 1b 13 56 bc
       -0.068077594 0.024128137 0.1513073 -0.013066079
000150 3b d0 18 3f fd bf 93 3d cb 8e 56 3e ab e1 b6 3d
       0.59692734 0.07214353 0.20952909 0.089297615
000160 71 17 92 3e 38 42 de 3e 96 e3 a9 be ee a8 30 bf
       0.2853351 0.43409896 -0.33181447 -0.69007766
000170 a3 b9 ad 3e 50 3e b9 3e 04 79 f4 3d c0 d1 ab 3d
       0.33930692 0.36180353 0.119371444 0.08389616
000180 80 0f 9a 3c 9c 77 f1 3c 90 15 d1 3e 78 bf cc bc
       0.01880622 0.02947598 0.40836763 -0.024993643
000190 4b 9c 8d be a2 ae e4 bd 45 fd 5e 3e 40 b2 1f bf
       -0.27658305 -0.11166121 0.21776302 -0.6238136
0001a0 ba a8 39 3f dd 73 6c 3e c7 f0 76 be 7d 6f c8 3e
       0.7252308 0.23091073 -0.24115287 0.3914756
0001b0 61 f6 99 bd cf 02 90 bd c3 33 c6 be 93 df 1a be
       -0.07517696 -0.07031786 -0.38711366 -0.1512435
0001c0 ac 1b 69 3e f2 2a 22 3f e2 13 bc 3d 83 3a 36 3e
       0.22764462 0.6334678 0.0918348 0.17795758
0001d0 fb 80 e4 3e 16 4c 38 3e 99 c8 89 bd f6 59 7a be
       0.44629654 0.17997774 -0.06727714 -0.2444838
0001e0 7d 7a d4 3e 9e bc be 3e d9 4f 00 3e e5 9f d6 3d
       0.414997 0.37253278 0.1253046 0.10479716
0001f0 fa 81 72 3e 71 0f f7 3e c2 f1 8e be 58 11 0b bf
       0.23682395 0.48253968 -0.27918822 -0.5432334
000200 87 ac 36 bf d6 fb 40 3e b1 f8 a6 bd 2a 00 4c be
       -0.71357006 0.18846068 -0.08152903 -0.19921938
000210 91 ca f3 bd fe 0d f4 bd fe 77 63 3f cc 2b 4f bd
       -0.11903871 -0.11916731 0.8885497 -0.050578877
000220 ad e9 12 3e 4e 07 ac be f6 44 0e 3f 08 e2 05 3d
       0.14346953 -0.33599323 0.55573976 0.032686263
000230 17 28 87 3e 5b 53 78 be be 1c ba bc f0 1b 2c bf
       0.26397774 -0.24250548 -0.022718783 -0.6723013
000240 b8 97 63 3d 36 53 7a bd a1 de 81 3e 5a f4 ee be
       0.055564612 -0.061114512 0.25365165 -0.466708
000250 62 80 05 3e 52 0c dc 3e 4a 35 87 bc 1d 3d b1 be
       0.13037255 0.4297815 -0.016504902 -0.34616938
000260 fb 8f 20 3f 32 71 ba be ac 26 8d be 8b 8d 60 bd
       0.62719697 -0.36414486 -0.27568567 -0.054822486
000270 f8 fc 94 3e 4a 28 37 3e ab 22 27 bf 95 5b 54 be
       0.2909925 0.17886463 -0.65287274 -0.20738061
000280 9e ef 85 3c c4 4c 2b 3d 17 c5 4a 3e 0d 3a d2 be
       0.01634961 0.041821256 0.19801746 -0.41059914
000290 bb b7 93 ba 6a 91 1a be b0 02 0b be d9 f3 62 3f
       -0.0011269966 -0.15094534 -0.13575244 0.8865333
0002a0 48 db 96 3e 39 c6 3d be fd e7 65 be 02 db a5 3e
       0.29464173 -0.18532647 -0.22451778 0.32393652
0002b0 e3 e7 20 3f c2 9f a9 be f8 90 bb 3d b9 e1 97 be
       0.6285383 -0.33129698 0.0915851 -0.296644
0002c0 42 21 1c 3f 13 e6 a0 3d 3d 7d f3 bd c4 29 68 be
       0.6098825 0.07856383 -0.11889122 -0.22672182
0002d0 d5 aa 87 bd 65 3c d1 3d 57 b7 91 be 86 09 02 3f
       -0.066243805 0.102165975 -0.2846019 0.5079578
0002e0 42 f5 6f 3e ea fd 2a 3f 94 f4 00 be e7 41 25 be
       0.23433402 0.6679369 -0.12593299 -0.16138421
0002f0 2e c3 20 3f 41 56 f7 be e3 10 23 3e d1 a1 15 be
       0.6279782 -0.48307994 0.1592441 -0.1461251
000300 3a 04 7a be a0 85 a8 be a0 2c 6c 3e 99 b6 76 3d
       -0.24415675 -0.32914448 0.23063898 0.060232732
000310 db f5 f1 bd 4f c9 48 3f a0 b6 20 3e b8 df 48 3e
       -0.11814471 0.7843217 0.15694666 0.19616592
000320 fa db 92 be f6 7f 25 3f c4 b9 8e bd 0b cd 2a 3f
       -0.28683454 0.6464838 -0.06969026 0.6671912
000330 5a 5a 8a bd 99 98 35 3e c5 bc 93 3d 28 89 b6 3e
       -0.067555144 0.17733993 0.07213739 0.35651517
000340 82 3f 89 3d 22 98 03 be f1 f8 82 be 43 94 d2 be
       0.06701566 -0.12851003 -0.25580552 -0.4112874
000350 29 11 26 3f 45 4f b4 ba 07 1f e7 3e 3c 24 20 be
       0.64869934 -0.0013756534 0.4514086 -0.15638822
000360 b9 50 37 3e 4a fd 88 3e 64 f3 32 3e ca b1 b1 be
       0.17901887 0.26755744 0.17475659 -0.34705955
000370 92 a5 f9 3e b6 89 3a bf 6e b0 7a 3e ac 05 91 be
       0.48759133 -0.7286638 0.24481365 -0.2832464
000380 11 75 a6 bd d7 ed d2 3d d4 23 9f 3e 25 82 59 3f
       -0.081277974 0.102992706 0.31082022 0.8496421
000390 42 7e 69 3e b4 07 05 3c 10 50 c3 be 7f a5 47 be
       0.2280207 0.008119512 -0.3814702 -0.19496725
0003a0 0c 92 c6 3d de 2d d0 be f3 06 54 3e 27 e7 34 3c
       0.09695825 -0.40659994 0.20705776 0.011041439
0003b0 fd 4c 40 3e 45 e4 a3 3e 3a ce db 3d 6f c8 2f 3f
       0.18779369 0.32010093 0.10732694 0.6866521
0003c0 69 ec 54 bb 80 66 a2 be a8 79 06 3f 38 a9 19 be
       -0.0032489544 -0.31718826 0.5252938 -0.15005958
0003d0 47 d8 9f be b2 22 03 3e 17 72 66 3e 76 22 c4 3e
       -0.31219694 0.12806204 0.2250446 0.38307542
0003e0 03 16 04 be 6f c0 35 3e 50 05 3a 3b 3c 78 8f be
       -0.12899022 0.17749189 0.0028384514 -0.2802142
0003f0 8a 31 a7 3e a9 2c 81 3d 19 4b 29 be 3b ee 1d 3e
       0.32654983 0.063073464 -0.16532554 0.15422909

fc1.bias f4 [64]
000000 ee f3 85 3d c5 3c a9 bc 84 6c 64 be 71 40 18 3f
       0.065406665 -0.02065886 -0.2230702 0.5947333
000010 f0 d9 5a 3e 37 72 65 be 81 c8 b4 be 08 60 d9 bd
       0.21372199 -0.22406851 -0.35309222 -0.1061402
000020 53 37 4e be b3 af f1 3b b5 49 c2 3d fe f9 19 3e
       -0.20138292 0.0073756813 0.09486715 0.1503677
000030 63 42 59 be ef 80 a7 3e a5 a6 5e 3d 65 b4 b7 3d
       -0.21216731 0.32715556 0.054358143 0.089699544
000040 8b 77 f4 bd e0 a6 5a be 15 9c 8c 3e 88 69 35 3f
       -0.119368635 -0.2135272 0.2746283 0.7086415
000050 c0 32 a5 3d 3f 3c 73 3e ea f7 1b 3f 7b 3c 15 3f
       0.080663204 0.23753451 0.6092516 0.5829541
000060 bc 14 22 bf 43 45 f9 be 6b 15 6f 3e c1 c8 8f bd
       -0.6331289 -0.48685655 0.23348014 -0.07020713
000070 d9 10 80 3d 92 da 00 3f 98 65 8a bc 94 ea 8b bd
       0.062532134 0.5033351 -0.016894147 -0.068318516
000080 ef 02 23 3f a8 11 0e bf 3e cf 85 3d 99 30 e8 3e
       0.6367635 -0.5549569 0.06533669 0.45349577
000090 00 b6 33 be 00 30 42 bc 36 43 26 bf e7 48 3c 3e
       -0.17549896 -0.011852264 -0.64946306 0.18387185
0000a0 f7 c3 bb be e9 62 f6 be 23 e2 eb be eb ef 1d be
       -0.36672947 -0.48122337 -0.46070966 -0.15423553
0000b0 6c 82 08 3e 3a fe 4d 3f ef 79 ef 3e 0d ae 14 be
       0.13331002 0.80466044 0.46772715 -0.1451952
0000c0 5c 09 62 3e c3 13 d0 bd cc 28 9e be 54 75 22 3f
       0.22073883 -0.10160019 -0.308905 0.6346028
0000d0 85 7b 4c 3e ee f3 13 bf 8a 01 dc 3e 88 43 f1 3e
       0.19968994 -0.5779408 0.42969924 0.47121835
0000e0 a3 0e 38 3e 00 b2 5a 3e 9b aa e3 bd a9 70 9d be
       0.17974333 0.21356964 -0.11116525 -0.30750015
0000f0 fa c4 bb be 4a df ec bd 43 be 46 be b4 93 e3 3d
       -0.3667372 -0.115660265 -0.19408517 0.111121565

fc2.weight f4 [32, 64]
000000 3c 92 a9 bd b9 7f a8 be d2 f9 ce 3d f2 94 c8 bd
       -0.08279845 -0.32909945 0.10106243 -0.09794034
000010 d2 b1 f1 bc c6 94 21 be aa b9 1f 3e ea 00 f3 3d
       -0.029503737 -0.15779409 0.15598169 0.11865409
000020 58 fd 69 3e 48 bf bf 3d 56 91 2a be f5 f0 4e 3d
       0.22850549 0.09362656 -0.16657004 0.050522763
000030 ca ba 1c be c0 dd 39 be 04 dc 29 3e 81 10 ff 3c
       -0.1530563 -0.18150997 0.16587836 0.0311358
000040 af 3b 42 3e 77 69 ca 3e c0 a3 e5 3d c9 31 45 3e
       0.1896808 0.39533588 0.112128735 0.19257273
000050 37 3b 0d 3e bf bb 32 be ec d7 fb 3d d5 de 36 be
       0.1379212 -0.17454432 0.12297043 -0.17858441
000060 8b ce f3 3d c2 29 91 bd 6f c8 95 bd 32 ec 92 bd
       0.11904629 -0.07088043 -0.0731362 -0.07173957
000070 0a ea 3b be 9c 08 9f 3d 14 73 13 3e 24 66 a5 3d
       -0.18350998 0.07765314 0.14399368 0.080761224
000080 d7 50 1a 3e 87 2c 8c 3d a0 a3 32 3d 4d 1b 82 be
       0.150699 0.068444304 0.043613076 -0.25411454
000090 6d da 26 3d f1 36 2a bd dc 19 6e 3d 59 87 96 bd
       0.04073565 -0.041556302 0.05813013 -0.07350034
0000a0 6d e5 a1 3d 24 a1 e7 bd 94 21 6a bc be 2c d8 bd
       0.079050876 -0.11310032 -0.014290232 -0.10555409
0000b0 ef 04 21 be f2 b5 10 3c ec 77 33 bd fd 4d 97 ba
       -0.15724538 0.008832442 -0.04381554 -0.0011543628
0000c0 72 a3 8b 3e 8d 53 36 3e a9 07 33 bd b1 87 16 3d
       0.27273136 0.1780531 -0.043708477 0.0367505
0000d0 ae 81 b1 bd 66 9d 73 be 10 9a 8a be a0 70 77 3c
       -0.086673126 -0.23790511 -0.27070665 0.0151025355
0000e0 d5 f5 50 be cd bd ae bd 56 42 30 3d 6f af 1c 3e
       -0.20406277 -0.085322954 0.043032013 0.15301298
0000f0 73 db a9 3d a0 65 38 3e 33 cc 3a be 9b 5e f3 bd
       0.0829381 0.18007517 -0.18241958 -0.11883279
000100 67 e7 c6 bd 6f 7c e3 be 30 75 46 3e 28 4e 37 3e
       -0.09712105 -0.44430873 0.19380641 0.17900908
000110 22 fa 1e bd 6f b3 01 bd 96 6e 01 be a4 b1 ad 3d
       -0.038812764 -0.03166526 -0.12639841 0.08481148
000120 15 35 14 bf 21 b4 31 3d 26 3a 97 3d fc 59 17 3e
       -0.57893497 0.043384675 0.07384138 0.1478042
000130 a5 e6 52 bd 65 03 38 bd 16 b6 d4 bd 7a be 2e 3e
       -0.05148949 -0.044925112 -0.10386293 0.17064849
000140 fd a5 98 be 48 33 7b be 83 e2 ff 3d 7f 10 66 bb
       -0.2981414 -0.24531281 0.124943756 -0.0035105047
000150 8b 67 0a be c8 9d ff be 87 a1 d9 3d eb f2 c6 3d
       -0.13516061 -0.49925065 0.10626512 0.09714302
000160 95 40 8e be e9 3e 05 3e 6e c2 b0 3d bd e1 d5 bd
       -0.27783647 0.1301228 0.086308345 -0.10443447
000170 7c 0b e0 bd 0c c0 07 be c6 76 d6 bd f8 f3 46 3d
       -0.109396905 -0.13256854 -0.10471873 0.04857251
000180 e4 f6 c2 3d d9 a2 96 be 22 2b 13 3e 8d 48 c8 be
       0.09519747 -0.29421118 0.14371923 -0.39117852
000190 fb 8e 0d 3d 33 7d c9 bd 4f 10 c5 bd a0 a4 88 bd
       0.034560185 -0.09838333 -0.09622251 -0.06672025
0001a0 95 16 07 bf 13 5a a5 3d 37 c0 67 3e df 7d a3 bd
       -0.5276883 0.08073821 0.22631918 -0.079829924
0001b0 bd f3 da bd b5 5d 41 3e 48 3a e0 bd a8 f6 92 bd
       -0.10691021 0.18883403 -0.10948616 -0.07175952
0001c0 20 d1 4f be 7f 73 76 be 14 95 08 bd f8 51 ee 3c
       -0.20294619 -0.24067496 -0.033345297 0.02909182
0001d0 95 d3 a0 bc 9c ad 01 bd 98 fc 3d 3e 48 66 a3 bc
       -0.01963214 -0.031659707 0.18553388 -0.019946232
0001e0 4c 1c b7 3d 5a a8 d0 ba 6f a3 fa bd ac 2d 93 3c
       0.08940944 -0.0015919313 -0.12238204 0.017966114
0001f0 cd 6b fb 3d 46 1c 10 3e 30 13 3b 3e 16 c3 36 b9
       0.12276421 0.14073285 0.18269038 -0.00017429548
000200 55 9f a2 3d 2a 52 93 3d 91 21 ac 3c 91 90 c9 bc
       0.079405464 0.07193406 0.0210121 -0.024605067
000210 e8 6a f1 bd b6 dd f4 bd 68 39 0c 3d 0a 2c a5 3d
       -0.11787969 -0.119563505 0.034234434 0.080650404
000220 7a 64 4d bd 4c eb a9 3d 51 5f cf bd 38 8c 7e bd
       -0.05014465 0.082968324 -0.10125602 -0.06214544
000230 de 4c 8c bd 59 14 30 bd c0 46 7d bb 10 58 e1 bd
       -0.06850599 -0.042988155 -0.0038646907 -0.11003125
000240 ed f3 b2 bd 72 03 6a 3c cb a6 0b bb f4 b2 da 3b
       -0.087379314 0.014283048 -0.0021309133 0.006674165
000250 4c 3b d7 bc 58 79 b2 bc cf 4a 1d bc 8f fa 17 be
       -0.026273392 -0.021786377 -0.009600355 -0.14841674
000260 d1 e3 b7 bd 5e 08 de 3d 2f b3 64 bd 80 0f 47 3d
       -0.089789994 0.1084144 -0.055834945 0.048598766
000270 42 f5 dd 3d ba 92 3d 3c 0f 16 b0 bd 80 9d 07 3b
       0.10837795 0.011570627 -0.08597957 0.0020693243
000280 32 fa b1 3d 3d 64 90 bd f0 46 38 bd 74 63 61 3d
       0.08690299 -0.07050369 -0.044989526 0.055026487
000290 b8 5f 48 bd 78 09 d5 bd cb 5b 67 bd 0c f8 4f 3d
       -0.04891941 -0.10402197 -0.056484025 0.050773665
0002a0 d9 93 02 be 1d 87 da 3d 3e 7d 85 3d 87 42 1f 3c
       -0.12751712 0.10670302 0.06518029 0.009720451
0002b0 9d 02 e1 3c 70 8d 27 3d b8 21 c7 3d f6 e8 bc 3d
       0.027467066 0.04090637 0.09723228 0.09224121
0002c0 3b 2f 68 bc 80 ca ae bd 9e 5b e1 bd f5 77 a8 bd
       -0.014171417 -0.085347176 -0.11003803 -0.08226005
0002d0 e3 fa 56 bd 71 0f b3 bd af 02 97 3d 26 d1 9a 3d
       -0.052485358 -0.087431796 0.07373559 0.07559423
0002e0 0b 20 01 be 58 f9 5b bd a7 6a eb bd 96 78 a7 bd
       -0.1260988 -0.05370459 -0.11494952 -0.08177297
0002f0 80 90 4f 3d 79 2f 9c 3d fc 29 7c bd 22 75 40 bd
       0.050674915 0.07626242 -0.061563477 -0.046986707
000300 95 b5 3d be 45 70 0e 3e b8 0f 99 3c be 37 77 3d
       -0.185263 0.13910015 0.018684253 0.060355894
000310 ef 47 86 bd 91 84 28 be 33 b9 4e 3e f5 98 cf 3d
       -0.06556689 -0.1645682 0.20187835 0.10136596
000320 e5 19 ea bd 3b 23 c6 bc 50 ea a9 be 01 f0 b1 3d
       -0.1143072 -0.024186721 -0.3318658 0.08688355
000330 1d fc 21 bd 04 7f 17 be 61 23 a1 be df e5 7f 3b
       -0.039547075 -0.14794546 -0.31472304 0.0039046926
000340 0f fd 01 be 7c dc c7 3c 4d 13 7c bc 67 be 17 3e
       -0.1269419 0.024397127 -0.015385461 0.14818726
000350 ff ec ad 3d df ee 92 bd dd ce 12 bc 3b 1a 86 bc
       0.08492469 -0.07174467 -0.008960453 -0.01636993
000360 37 58 80 bd b6 fe 18 3e 30 64 a6 3d 5c 9c 23 be
       -0.06266826 0.14940915 0.08124578 -0.15977615
000370 0f d8 e8 bd 8e e8 2d ba 0f 75 09 be d0 a3 17 be
       -0.11369335 -0.00066340796 -0.1342356 -0.14808583
000380 48 45 e0 3d 60 14 69 bb 48 b8 54 3e 53 75 5a bd
       0.10950714 -0.0035565123 0.20773423 -0.053334545
000390 3d 8b 1d 3d 75 f9 bf 3d b8 7f 76 bd cf 54 33 3e
       0.038462866 0.09373752 -0.060180396 0.1751282
0003a0 35 94 cc 3d 93 f0 47 b9 dc c7 be bd ca a8 16 3d
       0.09989206 -0.0001906774 -0.09315464 0.036782064
0003b0 66 f9 08 bb fa 1f 70 bc 08 9b f1 3c 6e 36 31 bd
       -0.0020900606 -0.014656061 0.02949287 -0.0432648
0003c0 09 8f 2b 3e 50 d1 a9 be 95 d3 26 3d fd e0 9e 3d
       0.16753782 -0.33167505 0.040729124 0.07757757
0003d0 ed 89 90 3c fa df 34 3e 16 32 54 bd df 39 10 3d
       0.017643893 0.17663565 -0.05180558 0.03521144
0003e0 2d e8 2e bd bb 81 38 bd 1b 85 ca be f2 f9 2c bd
       -0.04270189 -0.045045596 -0.39554676 -0.042230554
0003f0 13 f9 d4 3d 74 a2 65 3e 0c 54 5b bd 9e e0 3f 3d
       0.1039907 0.22425252 -0.05354695 0.04684507

fc2.bias f4 [32]
000000 61 ce af 3d 3f 6c 8d bd 23 e4 b9 bc 49 c2 08 3e
       0.085842855 -0.06905412 -0.022691792 0.13355364
000010 04 50 40 3d d9 c5 91 3e 56 98 4e bd 5e 03 92 bd
       0.04695131 0.28471258 -0.050438248 -0.071295485
000020 2c 12 e0 3c e6 2b 34 3d 72 e5 b0 ba fa 38 fa 3d
       0.027352415 0.043987177 -0.0013496114 0.12217899
000030 50 00 b0 3d b9 d8 4c 3e 11 fe 01 be 8a 6e a2 3e
       0.085938096 0.20004548 -0.12694575 0.3172496
000040 6b f1 01 be 3a 4c 33 be 51 6f a7 be 53 aa 99 bd
       -0.1268975 -0.17509547 -0.32702115 -0.0750319
000050 0c 52 d6 3e 95 46 a0 bb 72 73 65 be 9e 82 fd 3e
       0.41859472 -0.0048912265 -0.2240732 0.49513716
000060 68 da f6 bd f3 88 df 3e df 6f 56 3e 95 79 0d be
       -0.120533764 0.4365917 0.20941113 -0.13815911
000070 37 4e 96 3e 2f 36 01 3c ec b9 f8 3e 48 85 9b bc
       0.29356548 0.0078864535 0.48579347 -0.018984452

fc3.weight f4 [16, 32]
000000 f4 61 2f be a1 34 a2 bc 5d 46 0f 3e 11 90 93 3c
       -0.1712721 -0.019800486 0.13991685 0.018013032
000010 b8 7f 04 bf ae df ee be 9d 1b da 3e 4e 0c 8a 3e
       -0.51757383 -0.4665503 0.42599192 0.26962513
000020 bf 35 d0 be d3 fa b8 be 23 29 85 be 5c 65 bc be
       -0.40666005 -0.36128864 -0.26007947 -0.3679608
000030 e6 19 04 bf 69 60 0f be e5 ff 82 be ad b6 fe be
       -0.5160202 -0.14001621 -0.25585857 -0.49748746
000040 f4 5c ec be 4e 73 48 3e 7d 31 73 3e 7c 9f 22 3d
       -0.46164668 0.19575235 0.23749347 0.039702877
000050 7f 15 fc be 7f c7 ad 3c 2d 0b 25 3e 7d d9 11 3e
       -0.4923515 0.021213291 0.16117544 0.14243121
000060 b3 aa 12 3e d1 95 e9 bd 5f c5 f2 be 6f 8c df 3d
       0.14322929 -0.11405528 -0.47416207 0.109154575
000070 b6 97 00 bf b0 5a ef bc 1d c8 39 bd 86 70 8f be
       -0.5023149 -0.029218048 -0.04535686 -0.28015536
000080 41 e2 82 be 52 f5 a0 bc de a7 0c 3e 75 86 35 3d
       -0.25563243 -0.019648228 0.13735911 0.04431768
000090 e7 45 28 be 11 8d 79 3d 25 fa 78 3c b6 50 fc 3b
       -0.16432916 0.060925547 0.015196358 0.007700051
0000a0 f4 01 84 3d 48 14 eb 3c bf 14 45 3d 24 db 79 bd
       0.06445685 0.028696194 0.04811549 -0.061000004
0000b0 21 99 da 3d d6 d7 c2 bd 11 b7 10 3e 80 10 23 bd
       0.10673738 -0.09513824 0.14132334 -0.039810658
0000c0 3a ba 62 be e8 ad ff bd 49 d3 31 be d4 8b d3 3d
       -0.22141352 -0.12484342 -0.17365755 0.103294045
0000d0 80 d6 20 3e e5 74 dd 3d 82 3d bf 3c e1 bd 98 be
       0.15706825 0.108133115 0.023344759 -0.29832366
0000e0 18 ab e5 3d a9 29 26 bd be 09 c6 be 5a 03 0e bd
       0.11214274 -0.040567074 -0.38679308 -0.034671165
0000f0 e6 f5 7d 3e ed d9 a1 3d 1e d0 b1 bc b9 34 15 bd
       0.24800834 0.07902894 -0.021705683 -0.036427233
000100 14 bb 8d bc db 71 0c 3e b6 6b c9 3d 3d 9c 0a 3e
       -0.01730112 0.13715307 0.09834997 0.13536163
000110 c7 6e f7 be d2 52 b7 be 51 f7 cf 3e fe ac 24 3d
       -0.48326704 -0.35805374 0.40618375 0.04020404
000120 07 ec 97 be cf de 8f be 43 9c 53 3e b7 67 53 be
       -0.29672262 -0.28099677 0.20665078 -0.20645033
000130 f8 23 03 bf b1 11 49 3c 2d b9 09 bf 4a cf 89 be
       -0.5122676 0.012272284 -0.5379818 -0.26915962
000140 fb 98 9e bc 7c 30 95 3e 56 59 ae bb 35 c8 be 3d
       -0.019360056 0.29138553 -0.0053207083 0.0931553
000150 a6 7d 2c bd 14 e3 5f 3e f0 89 c4 be 0a eb 17 3e
       -0.042112015 0.21863967 -0.38386488 0.14835754
000160 91 ee 21 3c 59 f7 87 3b 11 21 69 be 0f c1 98 3e
       0.009883539 0.004149359 -0.2276652 0.29834792
000170 b1 e0 9a bd f3 6f 00 3d ff 6a cb bd 18 0a 1b be
       -0.07562388 0.031356763 -0.09932517 -0.15140569
000180 94 35 b4 bd 05 1e 02 3e f5 b4 2b be 9c f8 38 be
       -0.08799282 0.12706764 -0.16768248 -0.18063587
000190 10 20 4b bd 99 11 3b bd 31 4b 83 bc 58 94 37 bc
       -0.049591124 -0.04567108 -0.016027065 -0.0112048015
0001a0 55 1a 32 be 06 19 0b be 34 ef 08 3e 85 82 fb 3d
       -0.17392857 -0.13583764 0.13372499 0.12280754
0001b0 ca f2 8d bd ef c1 fa bc c8 f7 5e 3d e5 58 16 3e
       -0.06931074 -0.030610053 0.05443552 0.14682348
0001c0 4a 6e 3c bd e0 d8 36 be ce b3 21 bd d7 ee 26 3e
       -0.046003617 -0.17856169 -0.039478116 0.16302048
0001d0 b7 69 ab bd 2d 8f 16 3e 86 52 cb 3d c2 78 88 bd
       -0.08369773 0.14703055 0.099278495 -0.06663658
0001e0 41 0e 19 be 22 87 95 bc 8d a9 a7 3d ed ba 20 3d
       -0.14946844 -0.018252913 0.08186636 0.039240766
0001f0 6d da 6f bd b2 bd 53 3a 85 4a 77 bd c0 88 92 3c
       -0.058557916 0.0008077278 -0.0603738 0.017887473
000200 10 f8 98 be 48 2a 29 3e 38 b1 68 bd 43 a3 db bd
       -0.29876757 0.16520035 -0.056809634 -0.10724499
000210 b9 19 7b bd f5 c5 15 bd 85 4c e0 bd 73 ac b5 3d
       -0.061303828 -0.03656574 -0.10952095 0.08870783
000220 63 6b d9 bd 17 97 27 3d 5b 09 36 be 4f d1 34 bd
       -0.106161855 0.040915575 -0.17777006 -0.044144925
000230 10 b2 18 bd df 63 66 3e ea 12 77 3d 86 b4 b6 3d
       -0.03727919 0.22499035 0.060320772 0.08921151
000240 71 bc 12 be 0e ab 3d 3d 6e 4f 0c 3e c0 a0 b7 bc
       -0.14329697 0.04630571 0.13702175 -0.022415519
000250 6f 12 33 be 8d e6 98 bd f3 b8 e1 ba 0a 39 44 bd
       -0.174875 -0.07465849 -0.0017221257 -0.04790596
000260 8d 93 76 3d 70 47 ea 3d fb 02 21 be 2f 8e 7b 3e
       0.06019931 0.11439407 -0.15723793 0.24565957
000270 03 fd 2b bc 9f 2c 0b be 3c 6b c8 bb 23 5d 05 be
       -0.010497334 -0.1359124 -0.006116299 -0.1302381
000280 76 34 5e bd ff 8c bc be 8c 91 a7 bd b5 68 98 bd
       -0.05424925 -0.3682632 -0.08182058 -0.07441846
000290 8d 2e 0e be 41 e4 27 3e c5 70 43 bd d8 49 8c be
       -0.13884945 0.16395666 -0.047714967 -0.27400088
0002a0 d3 a5 20 be 99 f3 8b be 12 d7 0d 3d 4c 86 32 bd
       -0.15688257 -0.27334288 0.034628935 -0.043585107
0002b0 e0 2e 36 3d 62 d4 94 3c 92 a9 b8 3d b8 af 54 3e
       0.044478297 0.018167678 0.09016718 0.20770156
0002c0 8c 6b 00 be 82 0d e1 bd ee 52 62 be a1 a6 c1 bd
       -0.12541026 -0.109889045 -0.22101948 -0.0945561
0002d0 52 86 52 3e ad 41 b4 bd c6 08 ce bb 23 19 21 3e
       0.20559052 -0.08801589 -0.006287667 0.15732245
0002e0 9e 04 a0 be 86 8c 09 3f ed 8b 0d be e6 d6 f4 3d
       -0.31253523 0.53730047 -0.13822909 0.11955051
0002f0 5a c8 7a 3e 53 fa b7 bb 9c ef de bd fc 11 78 be
       0.2449049 -0.005614558 -0.108855456 -0.2422561
000300 bb a9 ce 3b c5 58 76 3d c7 b0 f2 3d f5 29 c0 3c
       0.0063068545 0.06014325 0.11850124 0.023457507
000310 0a a7 c3 3d 82 ea 56 bd a7 ab c7 3c 43 25 21 be
       0.095533445 -0.052469738 0.024373842 -0.1573687
000320 b3 6d 38 be e1 3e fd 3b 33 7e ff 3d 4b 23 60 3c
       -0.18010597 0.007728443 0.124752425 0.0136802895
000330 2b 7c 12 be ef 11 ea bd 5b 1d d8 3c 4e df 06 3d
       -0.14305179 -0.11429202 0.026381185 0.032927804
000340 8c c4 50 bd 80 10 46 be 94 55 35 3d 39 88 8f bc
       -0.05096869 -0.19342232 0.044271067 -0.01752101
000350 7b 66 9d 3d 7b f7 9b 3d 73 34 96 3c cc ce 01 be
       0.07685562 0.076155625 0.018335557 -0.12676543
000360 e4 ef c5 bd 6a 3e 9f bc 70 e4 a4 bd 87 43 00 be
       -0.09664896 -0.019438941 -0.080513835 -0.1252576
000370 5c 02 17 be 46 22 dd 3d e9 ad fd bc 2c 7d 0f be
       -0.14746994 0.10797553 -0.030966716 -0.14012593
000380 7f 61 be 3d d4 43 ba bc 05 38 f9 bd 03 28 2e 3d
       0.0929594 -0.022737421 -0.12168888 0.042518627
000390 fd 22 7d bb 61 59 a3 be 96 9d d6 3d d7 57 cb bd
       -0.003862559 -0.31904128 0.10479276 -0.099288635
0003a0 31 5e 59 3d db c6 bb be d7 03 37 3d 22 7f fb 3d
       0.053068344 -0.36675152 0.044681396 0.12280108
0003b0 2b ce 82 bd 7e 88 3a be 13 fd 4b bd 3d 2f d4 bd
       -0.0638698 -0.1821613 -0.049801897 -0.103605725
0003c0 2b d8 be be 5e 19 63 bc 84 37 5e bc e4 02 0c bd
       -0.37274298 -0.0138610285 -0.013563041 -0.034182444
0003d0 b5 c6 a1 be a4 0f d7 3c 24 20 53 3d d8 d1 50 bc
       -0.31596914 0.026252575 0.051544324 -0.012745343
0003e0 77 11 4d 3d 8c 42 91 bc f1 ae bd 3d 1b cb 1a bc
       0.050065484 -0.017731927 0.09261883 -0.009447838
0003f0 53 e3 e8 bd 62 8e 6e bd 90 ba c9 bd 4f fb ba be
       -0.11371484 -0.058241256 -0.09850037 -0.36519858

fc3.bias f4 [16]
000000 c2 88 d9 3d c9 94 24 3e 1b 87 f7 bb 1b 03 06 3e
       0.106217876 0.16072382 -0.0075539476 0.13087122
000010 96 aa f6 bd ba 60 26 3e 27 9a 20 be 4b 0a ce bd
       -0.120442554 0.16247836 -0.15683804 -0.10060557
000020 be e0 4d be 29 1a 41 3c 21 e0 7a 3e 07 98 0a 3f
       -0.20105264 0.011786022 0.24499561 0.54138225
000030 14 ae f5 3e 56 89 c1 bd 0c 81 46 3e 91 57 61 3e
       0.47984374 -0.09450023 0.19385165 0.2200606

fc4.weight f4 [5, 16]
000000 7f c1 68 3e 02 c4 04 be b1 45 ae 3e bb 4f 09 be
       0.22730063 -0.12965396 0.34037545 -0.13409321
000010 7c dc 87 3d 34 6d 39 3e f0 2e 62 3d e0 ab bd bd
       0.06633851 0.18108064 0.055220544 -0.09261298
000020 f1 c5 23 3e aa 3c 93 bd 9a 02 04 3e a5 69 07 be
       0.15993477 -0.07189305 0.12891617 -0.13223894
000030 86 14 af 3e a0 46 5b bd e6 9d 9f 3e 6d 5d bb bc
       0.34195346 -0.05353415 0.31175154 -0.022871697
000040 a9 40 75 bd cd d3 f9 bd 14 a8 21 3e 7c 07 59 be
       -0.059876118 -0.12198601 0.15786773 -0.21194261
000050 cd 63 a9 3d 62 df 86 3e 57 df 13 3c d9 c8 37 be
       0.082709886 0.26342303 0.009025416 -0.17947711
000060 4f e0 ef bd a4 7a 8e bd 4b ed f7 3d 29 54 0b be
       -0.11712705 -0.069569856 0.12105807 -0.13606323
000070 af e5 a2 3e 54 43 f6 bd 24 11 1c 3e b1 de 29 bd
       0.3181586 -0.120245606 0.15240914 -0.04147214
000080 8f 4a d2 3e 4e 8f 06 be d5 79 60 3e 95 b6 bb 3d
       0.4107251 -0.13140604 0.21921475 0.09165684
000090 c7 e9 cb 3d ae 04 e7 3d 34 10 37 be 91 e6 a5 3e
       0.09956699 0.112801895 -0.17877275 0.3240247
0000a0 77 0c f7 3d c9 ef 82 bd 58 b5 e1 3d bd 7d 06 be
       0.12062924 -0.06393392 0.11020917 -0.13133903
0000b0 25 29 ba 3e 94 42 d2 bd ff 13 56 3e 00 03 41 bd
       0.36359516 -0.10266605 0.20906065 -0.047122
0000c0 34 3a d0 3e 05 b3 fa bd 63 ab 4a 3e 9f 2f 16 be
       0.40669405 -0.122411765 0.19791941 -0.14666604
0000d0 d3 76 d8 3d b2 dd 5d 3e 75 73 eb 3d 52 64 0d 3e
       0.10569539 0.21666601 0.11496631 0.138078
0000e0 1b df b4 bd fe 3a 9e bd e5 a7 18 3e 4d a5 09 be
       -0.088316165 -0.077260956 0.14907797 -0.13441963
0000f0 88 b3 9c 3e e2 06 5c 3e 96 b7 97 3e c8 e0 aa bc
       0.3060572 0.21487 0.29632252 -0.020859137
000100 0f a2 9e 3e e9 d4 18 be 88 13 e5 3e 9a f3 d9 3d
       0.30983016 -0.14924969 0.44741464 0.106421664
000110 c6 cc d0 bd 89 18 8f 3d 5e db cc 3c bf a1 2a 3e
       -0.101953074 0.069871016 0.025006946 0.16663264
000120 42 bb 5c be c3 d5 30 3d 4a 1e a3 bd 64 02 32 be
       -0.21555808 0.04317261 -0.079647616 -0.17383724
000130 b3 22 c5 3e c0 ee e1 3b 9e 1d 28 3e c3 77 4d 3d
       0.38503036 0.0068949163 0.16417548 0.05016304

fc4.bias f4 [5]
000000 a2 53 3c 3e 31 e7 b3 3e 75 9c 9a bd 77 61 53 3e
       0.18391278 0.35137323 -0.07549373 0.20642649
000010 26 b3 3f bd
       -0.04680171
