1st_exp/dqn_model_reward1.pth (torch, 16632 bytes, 8 tensors)

fc1.weight f4 [64, 9]
-0.17041217 0.35557577 -0.06294952 0.16839854 -0.16192847 0.54051644 -0.15900439 0.18900494
0.45836142 -0.2194849 0.14759079 -0.30054557 -0.41561857 0.29271907 -0.53248864 0.068996936
-0.021856517 1.0798965 0.16261663 -0.086008154 -0.24694407 0.11722551 0.41058466 -1.0958893
0.30040273 -0.069139205 0.060025208 -0.29011178 -0.27175638 -0.09262555 0.38442594 -0.29071856
-0.055896886 0.12710668 0.25262612 0.2319031 -0.05591776 0.01614326 0.16608486 0.28361106
0.092928134 -0.8377047 -0.20730707 0.028273718 -0.58763635 -0.116468355 -0.11244174 -0.017017797
0.21160378 0.20565435 -0.36529544 0.116227135 -0.024543319 0.21524891 0.12809673 -0.2764235
-0.27163172 0.3294876 0.1328936 0.045422964 0.12742846 -0.07245471 -0.3326612 0.26931837
-0.02130745 -0.19013853 0.013662233 -0.23585816 0.32412046 0.38025045 -0.43308195 -1.1310575
-0.030990392 -0.08659695 -0.1570552 0.18988425 0.025106423 -1.1366624 -0.08930401 0.16184652
0.077585645 0.33568433 0.09541464 0.11941792 -0.25382623 0.18216218 -0.058580905 0.1690115
0.0047850762 0.2354543 -0.30495033 0.1676332 0.22848403 0.18055956 -0.0044601737 0.34217992
0.10382898 -0.0929396 0.16063191 -0.24802838 -0.028614894 0.2621946 0.32945982 -0.21933874
0.91050357 0.30158132 0.042300336 0.803057 -0.31648138 0.022371182 0.53898376 0.1713532
0.2954724 -0.13059664 8.3308696e-05 -0.0051868297 0.7344966 -0.030713748 0.38462815 0.16398406
-0.37487653 -0.24939173 -0.0015093288 0.42194408 -0.09433952 -1.2737396 -0.37553793 -0.108099125
-0.025189035 0.22820695 0.1668268 0.1411345 -0.35351205 0.38976344 0.30538446 -0.30534738
-0.15392776 0.26843333 0.1846177 0.36475998 0.3885157 -0.017334133 -0.1564417 0.5868746
0.2828216 -0.23399246 0.018307135 -0.14137357 -0.018758148 0.45276058 0.0420689 0.16084293
0.5263286 0.38098547 0.10767949 -0.02600029 -0.12854294 0.05212096 -0.5514435 0.24893276
0.1271571 -0.15582563 0.29910824 0.3071277 -0.17932625 0.07602544 -0.19590425 -0.27509663
0.2151115 -0.03844042 0.003249806 0.33125398 0.21396126 0.327129 -0.052192114 -0.16516274
0.20136774 0.19806166 0.21176444 -0.27790987 0.16074683 0.16748647 0.031922586 -0.51668066
-0.09242198 -0.06899042 -0.35226396 0.18542282 0.40271392 0.15863192 0.23482224 -0.036125135
-0.24435523 0.14009047 -0.030330356 0.10345933 0.18295266 -0.14982316 0.059181582 0.22168078
0.12509477 0.2642101 -0.3539294 0.14154828 -0.4203438 0.34180507 0.027193172 -0.2000992
-0.27416837 0.055390794 -0.008064434 -0.4329915 0.23620455 -0.008818226 -0.23885363 0.012370609
-0.040643033 -0.07920849 -0.015554709 0.29099935 -0.039929803 -0.0113209775 -0.15026711 0.28427774
-0.34988868 0.22438344 -0.032526296 0.2579172 0.00010392009 0.25131294 -0.16083536 -0.15722033
0.24775058 0.046030845 -0.32439575 0.24535365 0.52519417 0.44375333 -0.15385503 -0.06098657
0.256682 -0.16798243 -0.5065267 -0.39800715 0.13058375 -0.30387798 -0.10852679 0.12755959
0.061635766 -0.012341695 0.2129587 0.663172 -0.6008702 0.15152895 0.048660643 0.06549636
00000000: 8780 2ebe 070e b63e aeeb 80bd ab70 2c3e
00000010: 94d0 25be 495f 0a3f 0cd2 22be 838a 413e
00000020: 59ae ea3e a6c0 60be 0a22 173e 1ce1 99be
00000030: f5cb d4be 46df 953e 2d51 08bf 444e 8d3d
00000040: 700c b3bc 0c3a 8a3f f984 263e 0b25 b0bd
00000050: e8de 7cbe ee13 f03d 2738 d23e 1a46 8cbf
00000060: 63ce 993e db98 8dbd fedc 753d 8889 94be
00000070: a723 8bbe 77b2 bdbd 7ad3 c43e 10d9 94be
00000080: 22f4 64bd 4128 023e 3658 813e 0278 6d3e
00000090: 050a 65bd df3e 843c 2612 2a3e 7835 913e
000000a0: 1b51 be3d d173 56bf 4e48 54be 499e e73c
000000b0: 566f 16bf f686 eebd db47 e6bd e868 8bbc
000000c0: a9ae 583e 0e97 523e 0108 bbbe 7e08 ee3d
000000d0: 120f c9bc 366a 5c3e ca2b 033e 6287 8dbe
000000e0: 5013 8bbe 99b2 a83e 4315 083e 6e0d 3a3d
000000f0: 9b7c 023e 2363 94bd 9252 aabe 19e4 893e
00000100: f68c aebc adb3 42be 8fd7 5f3c cd84 71be
00000110: 1ef3 a53e 30b0 c23e ebbc ddbe 7ec6 90bf
00000120: 90df fdbc be59 b1bd 14d3 20be 0471 423e
00000130: fcab cd3c 277e 91bf 05e5 b6bd 18bb 253e
00000140: 39e5 9e3d d1de ab3e c068 c33d 6291 f43d
00000150: 83f5 81be b988 3a3e 88f2 6fbd 5a11 2d3e
00000160: 21cc 9c3b ef1a 713e 7322 9cbe 0aa8 2b3e
00000170: b8f7 693e 9be4 383e a626 92bb 3532 af3e
00000180: 4aa4 d43d 1e57 bebd b17c 243e 27fb 7dbe
00000190: c869 eabc 5f3e 863e f5ae a83e 569a 60be
000001a0: c316 693f de68 9a3e 1e43 2d3d 2595 4d3f
000001b0: d909 a2be c543 b73c d7fa 093f 3777 2f3e
000001c0: 2948 973e 20bb 05be 04b6 ae38 48f6 a9bb
000001d0: f807 3c3f 669b fbbc fbed c43e 70eb 273e
000001e0: d1ef bfbe 8c60 7fbe acd4 c5ba 0e09 d83e
000001f0: 1435 c1bd e609 a3bf 8246 c0be 1363 ddbd
00000200: 3c59 cebc 15af 693e a5d4 2a3e 9085 103e
00000210: 88ff b4be 138f c73e 5a5b 9c3e 7e56 9cbe
00000220: 3d9f 1dbe 1870 893e 6c0c 3d3e d2c1 ba3e
00000230: 88eb c63e 5000 8ebc 4132 20be 6a3d 163f
00000240: fecd 903e b89b 6fbe d8f8 953c 3cc4 10be
00000250: b0aa 99bc 3cd0 e73e 7050 2c3d 02b4 243e
00000260: 79bd 063f 8710 c33e 1087 dc3d 8ffe d4bc
00000270: c3a0 03be ca7c 553d 672b 0dbf 3be8 7e3e
00000280: 7935 023e c190 1fbe b724 993e d83f 9d3e
00000290: 4da1 37be 3ab3 9b3d 209b 48be 77d9 8cbe
000002a0: 3046 5c3e b473 1dbd b2fa 543b 1f9a a93e
000002b0: a918 5b3e 747d a73e 66c7 55bd 6c20 29be
000002c0: 5833 4e3e add0 4a3e c7d8 583e 344a 8ebe
000002d0: d19a 243e 9381 2b3e 42c1 023d 2f45 04bf
000002e0: bc47 bdbd d94a 8dbd f15b b4be 7bdf 3d3e
000002f0: 8530 ce3e 6870 223e 3e75 703e f3f7 13bd
00000300: 4238 7abe e073 0f3e 5e77 f8bc 7ce2 d33d
00000310: f157 3b3e 3e6b 19be 6368 723d 4900 633e
00000320: d818 003e 8c46 873e 3c36 b5be 08f2 103e
00000330: 4d37 d7be 1301 af3e 37c4 de3c cee6 4cbe
00000340: cc5f 8cbe 75e1 623d b020 04bc 10b1 ddbe
00000350: 9bdf 713e 527a 10bc 0c96 74be 18ae 4a3c
00000360: 4f79 26bd 1038 a2bd 2ed9 7ebc defd 943e
00000370: 6f8d 23bd 9f7b 39bc 9fdf 19be da8c 913e
00000380: 9c24 b3be c6c4 653e 4b3a 05bd b90d 843e
00000390: acef d938 17ac 803e 06b2 24be 5efe 20be
000003a0: 54b2 7d3e d78a 3c3d 3317 a6be fd3d 7b3e
000003b0: 2073 063f a333 e33e 2c8c 1dbe 0ecd 79bd
000003c0: d36b 833e 9603 2cbe bcab 01bf 98c7 cbbe
000003d0: bfb7 053e e595 9bbe 4b43 debd fb9e 023e
000003e0: c975 7c3d d234 4abc d811 5a3e a4c5 293f
000003f0: a1d2 19bf 682a 1b3e 6250 473d f522 863d

fc1.bias f4 [64]
-0.027429515 0.43373832 0.020905633 0.1560095 0.044992287 -0.39157814 0.49137926 -0.16670318
0.13610893 0.032910552 -0.09191934 0.16918443 -0.29016653 -0.29840988 0.13497016 0.16781507
-0.15142792 -0.023535091 0.04711325 0.12494318 -0.14479128 -0.100349925 -0.19062805 0.070562534
-0.22639646 -0.25672498 0.28541785 -0.21258622 0.28791732 0.3075562 0.40697387 -0.041724317
-0.18713902 -0.07373138 0.10511408 0.04652033 0.13951407 0.18552755 -0.22855502 -0.14062478
0.08938411 0.20530246 -0.030499535 -0.088814676 -0.32593554 0.19077672 -0.054979604 0.062802956
-0.19162072 0.21743761 0.13615243 0.29014584 0.12045606 -0.17189118 0.0352622 -0.121277176
-0.04667345 0.41236317 -0.06257212 0.014108211 0.43445385 0.049506593 -0.37778392 0.13881569
00000000: ddb3 e0bc f312 de3e 4a42 ab3c f4c0 1f3e
00000010: d549 383d ee7c c8be 1096 fb3e 3db4 2abe
00000020: 2460 0b3e 37cd 063d 3540 bcbd af3e 2d3e
00000030: b590 94be 2ec9 98be 9e35 0a3e b7d7 2b3e
00000040: ec0f 1bbe aacc c0bc d3f9 403d 36e2 ff3d
00000050: 2a44 14be 4384 cdbd 0034 43be 1783 903d
00000060: 79d4 67be 7571 83be 4a22 923e 34b0 59be
00000070: e669 933e 0278 9d3e e15e d03e 1ee7 2abd
00000080: 5fa1 3fbe 7a00 97bd 0d46 d73d 1a8c 3e3d
00000090: c7dc 0e3e effa 3d3e 540a 6abe f1ff 0fbe
000000a0: 040f b73d cf3a 523e 29da f9bc 78e4 b5bd
000000b0: 06e1 a6be f95a 433e 4b32 61bd d69e 803d
000000c0: 3938 44be f7a7 5e3e 8b6b 0b3e ff8d 943e
000000d0: abb1 f63d 3e04 30be 196f 103d 2b60 f8bd
000000e0: a92c 3fbd 4421 d33e d025 80bd 2026 673c
000000f0: bc70 de3e 6dc7 4a3d e56c c1be b325 0e3e

fc2.weight f4 [32, 64]
-0.03138962 0.15510923 0.15243529 -0.19433086 0.13398418 0.051654704 -0.18513373 0.25148317
0.0583031 0.118879534 -0.017052745 0.17054063 0.10908868 -0.17652228 0.20886652 -0.113221146
-0.12216595 0.097481854 -0.053120445 0.04532346 0.14964896 0.105314486 -0.076618 0.0591569
0.13432348 -0.017930878 -0.04763033 0.07650635 -0.20223646 -0.6206579 0.036307786 -0.40810087
0.10764455 0.12493546 -0.036147814 -0.09643791 -0.01884435 -0.025664402 -0.013254568 -0.03193295
0.04100853 0.008278712 0.050252452 -0.08270754 0.09837259 -0.4291165 0.0617964 0.08577686
0.1558792 -0.057657514 0.07657504 -0.3679141 -0.08005081 -0.088026576 -0.11118166 -0.023491476
0.031946544 -0.4167714 0.1381247 -0.032683767 -0.41317838 0.12202123 0.09610385 -0.067288585
0.004282207 0.0842749 0.15203242 -0.18525808 0.23596023 0.19057533 -0.13648908 0.2331182
0.14364888 0.105173096 0.048123393 0.2578729 0.08441749 -0.25893766 0.17806269 -0.12448
-0.0055435593 0.09456694 -0.02188627 0.1658725 0.033814866 0.16370708 -0.029615669 0.008434773
0.1394823 0.18197227 0.22522534 0.31505814 -0.39342648 -0.29598096 -0.048847206 -0.5046199
0.12544283 0.13894823 0.17776361 0.112962164 0.13557489 -0.06098807 -0.029896762 -0.0115997605
-0.0019240328 -0.064566 0.19519758 -0.22088934 0.19938669 -0.04778036 0.026530528 -0.156955
0.14052375 0.14714958 0.18401507 -0.29166776 -0.03832503 0.031248568 -0.013828672 0.016994111
0.017348517 -0.4719431 0.05895341 -0.20861207 -0.31489557 0.012691325 0.05492232 0.10091327
0.012551388 -0.06621796 -0.051775903 -0.086244896 -0.025338372 -0.015630001 -0.031121032 -0.02294725
-0.0205001 -0.040376324 -0.112893604 0.103110515 0.08648319 -0.09834442 -0.05610577 -0.0508167
0.03602727 -0.005383965 0.015426946 -0.12029067 0.07378405 -0.077260196 0.07893022 0.028148625
-0.1096617 -0.063843906 -0.04457578 0.039943248 0.0374551 -0.04293732 -0.010924215 -0.100122
-0.19536978 -0.060155697 0.07220252 -0.13084714 0.07791762 0.08642185 0.01901674 0.05569177
-0.079958804 0.12802427 0.04282383 -0.13401906 0.021115754 -0.025163194 -0.12925568 -0.10943751
0.10951328 0.030167392 -0.004947445 0.075749725 0.021701757 0.06222551 -0.07494737 -0.047136284
-0.00054897496 0.027041135 -0.014697736 0.11945244 -0.07491162 -0.019879937 -0.07983402 0.056754738
0.24265525 -0.111599855 0.054407105 0.3491051 0.19629008 0.055452116 0.18973228 -0.22685906
0.14432885 -0.16686709 0.09195712 0.17200959 -0.0047152103 0.10513788 -0.040984202 0.22927532
-0.3191747 -0.16057408 -0.066194944 -0.11589694 0.16041134 -0.14452344 0.0783133 0.17275974
0.15268208 -0.051019542 0.18718076 0.16008678 0.49045998 0.46357566 -0.34485674 -0.054464716
-0.054452233 0.33205098 -0.024103956 -0.23426685 0.05361469 0.084984764 0.17973293 -0.1200678
0.18732575 0.066886105 -0.23817527 0.08869491 -0.012889959 0.3680099 0.08516385 -0.15601996
0.17253648 0.24775769 0.18921414 0.3843309 -0.10964108 -0.12126152 -0.71144783 0.119159386
0.054326817 0.17034897 0.014238631 -0.012012215 0.37330842 -0.08473148 -0.19488606 0.1090899
00000000: 6792 00bd f4d4 1e3e ff17 1c3e abfe 46be
00000010: 2633 093e e293 533d b293 3dbe 67c2 803e
00000020: 3bcf 6e3d 1d77 f33d 33b2 8bbc 34a2 2e3e
00000030: e369 df3d 42c2 34be 1be1 553e 7de0 e7bd
00000040: 2432 fabd 91a4 c73d d394 59bd 18a5 393d
00000050: 943d 193e 1faf d73d e6e9 9cbd 814e 723d
00000060: 188c 093e c7e3 92bc 0518 43bd 5caf 9c3d
00000070: 1317 4fbe 70e3 1ebf 79b7 143d 99f2 d0be
00000080: bf74 dc3d 2ade ff3d bb0f 14bd 3d81 c5bd
00000090: 775f 9abc 273e d2bc b029 59bc 20cc 02bd
000000a0: 8ff8 273d 6fa3 073c 84d5 4d3d 9262 a9bd
000000b0: 9277 c93d 28b5 dbbe 391e 7d3d c7ab af3d
000000c0: cc9e 1f3e 492a 6cbd 60d3 9c3d 3d5f bcbe
000000d0: aef1 a3bd 4747 b4bd 36b3 e3bd 3271 c0bc
000000e0: 61da 023d 1063 d5be 9070 0d3e 6adf 05bd
000000f0: 1e8c d3be 44e6 f93d 18d2 c43d 99ce 89bd
00000100: c251 8c3b 5298 ac3d 63ae 1b3e 4bb4 3dbe
00000110: 8f9f 713e 2e26 433e cbc3 0bbe 8ab6 6e3e
00000120: b118 133e fe64 d73d 091d 453d eb07 843e
00000130: 14e3 ac3d 7a93 84be 1156 363e 5fef febd
00000140: bfa6 b5bb 50ac c13d d64a b3bc 7bda 293e
00000150: 7581 0a3d d4a2 273e 8f9c f2bc 0132 0a3c
00000160: 73d4 0e3e f056 3a3e 79a1 663e 4d4f a13e
00000170: 326f c9be d18a 97be 0214 48bd c52e 01bf
00000180: 1674 003e 7248 0e3e aa07 363e b558 e73d
00000190: 25d4 0a3e a0ce 79bd 0eea f4bc ec0c 3ebc
000001a0: d42f fcba 2e3b 84bd e0e1 473e d130 62be
000001b0: 062c 4c3e 57b5 43bd 8d56 d93c d0b8 20be
000001c0: 75e5 0f3e 61ae 163e 726e 3c3e 7a55 95be
000001d0: b5fa 1cbd fffc ff3c a791 62bc 3c37 8b3c
000001e0: 7a1e 8e3c 87a2 f1be 2179 713d 679e 55be
000001f0: fe39 a1be 46ef 4f3c 3af6 603d 9eab ce3d
00000200: 56a4 4d3c 489d 87bd f812 54bd 2aa1 b0bd
00000210: 6b92 cfbc 7d0a 80bc 89f1 febc dffb bbbc
00000220: d3ef a7bc a561 25bd c334 e7bd 9b2b d33d
00000230: 191e b13d cd68 c9bd 2acf 65bd 2c25 50bd
00000240: 5591 133d f96b b0bb 4dc1 7c3c f45a f6bd
00000250: 181c 973d 983a 9ebd 2ba6 a13d f297 e63c
00000260: 5096 e0bd 98c0 82bd 1895 36bd 889b 233d
00000270: 856a 193d 0bdf 2fbd 7bfb 32bc c30c cdbd
00000280: 040f 48be d265 76bd eade 933d cbfc 05be
00000290: 4693 9f3d f0fd b03d ffc8 9b3c 0e1d 643d
000002a0: 71c1 a3bd cb18 033e 0a68 2f3d 4b3c 09be
000002b0: f2fa ac3c 0b23 cebc 9a5b 04be c620 e0bd
000002c0: 8048 e03d 9b21 f73c 2d1e a2bb ac22 9b3d
000002d0: e2c7 b13c 2de0 7e3d 027e 99bd fa11 41bd
000002e0: 16e9 0fba 5f85 dd3c c6ce 70bc 7ba3 f43d
000002f0: 436b 99bd 40db a2bc 0580 a3bd a877 683d
00000300: 9e7a 783e 778e e4bd fcd9 5e3d e7bd b23e
00000310: 4400 493e c221 633d 2e49 423e be4d 68be
00000320: f1ca 133e 35df 2abe 0454 bc3d 4823 303e
00000330: 0d82 9abb 8752 d73d 0ddf 27bd 26c7 6a3e
00000340: de6a a3be 886d 24be 3791 87bd 605b edbd
00000350: df42 243e f4fd 13be b962 a03d eee7 303e
00000360: b158 1c3e def9 50bd 50ac 3f3e caed 233e
00000370: 921d fb3e ca59 ed3e 1091 b0be 6516 5fbd
00000380: 4e09 5fbd 9602 aa3e a975 c5bc a6e3 6fbe
00000390: 149b 5b3d 7e0c ae3d e90b 383e 1be6 f5bd
000003a0: 52d2 3f3e 95fb 883d 38e4 73be ada5 b53d
000003b0: 6830 53bc cb6b bc3e 626a ae3d b2c3 1fbe
000003c0: 67ad 303e 31b4 7d3e 5ac1 413e 05c7 c43e
000003d0: 818b e0bd f657 f8bd 7221 36bf d609 f43d
000003e0: cc85 5e3d f66f 2e3e 2649 693c e2ce 44bc
000003f0: 4822 bf3e b387 adbd 3690 47be 876a df3d

fc2.bias f4 [32]
0.04043098 -0.058074124 -0.030595329 0.03587659 -0.07107195 -0.043389913 0.009839306 4.6615147e-05
-0.009958596 0.07287251 -0.118234545 0.14314413 0.035594832 0.0033295713 -0.037683126 -0.09952751
0.06862614 0.013635546 -0.02725092 0.11971909 0.18159033 0.14099142 0.13542765 -0.050658528
0.077894114 -0.021392083 -0.022256779 0.020345908 0.11899731 0.113579854 -0.14377864 0.058713935
00000000: f59a 253d 22df 6dbd 0ea3 fabc 55f3 123d
00000010: 2c8e 91bd 9fb9 31bd 0a35 213c a284 4338
00000020: 6129 23bc 2f3e 953d f424 f2bd 6094 123e
00000030: e3cb 113d f034 5a3b 9f59 1abd 14d5 cbbd
00000040: dd8b 8c3d a067 5f3c 523d dfbc 482f f53d
00000050: d1f2 393e 0e60 103e 8cad 0a3e 517f 4fbd
00000060: f386 9f3d 733e afbc d953 b6bc 76ac a63c
00000070: ddb4 f33d 8e9c e83d b53a 13be 067e 703d

fc3.weight f4 [16, 32]
0.010500087 0.04012037 0.12406093 -0.00085741386 0.079583466 0.037856687 -0.13913187 -0.058192864
0.0492775 -0.119475454 0.10914163 -0.20338972 -0.0456511 -0.080054335 0.019321093 -0.08291662
0.092296764 -0.2385543 -0.12202407 0.029222349 -0.012802631 -0.14203285 -0.022360459 -0.16577452
-0.11351648 -0.020721598 0.0017248648 -0.12741879 0.04290829 -0.17622763 0.04645915 -0.1484561
0.0061841765 -0.07375793 0.0932074 -0.007839978 0.04860733 -0.007463241 -0.029197386 0.057316408
-0.09353827 -0.0029702163 -0.05189775 -0.013702633 -0.025895698 -0.09276035 0.027182437 0.045762226
0.07015492 -0.0017868532 -0.12280667 -0.19744948 0.040663596 -0.14503264 0.13352497 0.011632549
0.0042625503 -0.06401365 -0.13490075 -0.08247065 0.035063297 -0.17094031 -0.072536446 -0.056422934
-0.050297603 -0.1508446 0.081801094 -0.13475075 -0.073995896 -0.1472887 -0.09879392 0.085867524
0.15149304 -0.06777312 -0.14950085 -0.17169906 0.09939909 0.025763152 0.04877382 -0.039421126
0.048171584 0.08707687 0.06827369 -0.09065823 -0.114779435 -0.06884635 -0.119436465 0.03967887
0.008644553 0.106225364 -0.19485398 0.06983222 0.1510827 -0.16329236 0.14574893 -0.18146306
-0.1712871 -0.037939176 -0.040921137 -0.048510797 0.08045377 -0.057839807 -0.08006759 -0.008236743
0.15371172 -0.119051896 -0.045674473 0.05613106 -0.1590812 0.048865408 -0.20284386 -0.16580099
0.13979177 -0.13014135 -0.1581202 0.015761014 -0.15939301 -0.10175233 0.061934117 -0.018411828
-0.18863687 -0.015077439 -0.009646284 -0.17500164 0.07598754 0.009827146 -0.04753229 -0.06726274
-0.028042642 0.100090876 -0.028286599 -0.06415191 0.11557709 -0.10926082 0.09889172 -0.013449004
0.10293378 -0.042601544 0.119709596 -0.02926132 0.07816039 -0.035942316 -0.07405716 0.11708991
-0.078275956 0.036032327 -0.04969463 -0.12424031 -0.10552076 -0.12581989 0.1260634 -0.12716083
0.007952058 -0.0038056672 -0.08329222 0.017557874 0.087013945 0.106633045 0.09040154 -0.036560994
0.1246323 -0.14383774 0.13577782 0.046100277 0.121101126 -0.034627967 -0.06452547 -0.028134594
-0.18058649 -0.04068164 -0.124788076 -0.24647456 -0.09511049 0.037292376 -0.2063412 -0.21748543
-0.12853011 0.10361029 0.063994564 -0.010362817 -0.18375187 -0.08614804 -0.0039542443 -0.150635
0.076225534 -0.06845852 -0.11730001 -0.09458107 0.089070655 -0.17870538 -0.039996777 -0.16519712
0.02076113 -0.17328244 -0.15110399 -0.16108426 -0.080541655 -0.039872956 0.046059545 0.16565806
0.01380327 -0.021718588 -0.0140163805 0.018310087 0.066089794 0.10597863 0.10861032 0.12645009
0.12486851 -0.12065645 -0.17703079 -0.16688997 0.12548819 0.11227717 -0.16751622 -0.110546075
0.12311353 0.098989755 -0.18383609 -0.10998179 -0.13525374 0.061266135 -0.07935887 0.043754764
-0.012439826 -0.01858252 0.1601351 -0.09386197 -0.15433481 0.102376975 0.15754263 -0.0904681
-0.16643675 -0.014437588 0.03177017 -0.0018433917 0.120156154 -0.11266303 -0.00634636 -0.13732655
-0.056298792 -0.037805054 -0.11364514 0.04953634 0.04843927 -0.17460763 0.050364893 0.0057030697
0.001689792 -0.13705188 -0.06534134 -0.067573056 -0.17797835 -0.03916507 -0.13866341 -0.17384224
00000000: 8f08 2c3c 4255 243d a813 fe3d 12c4 60ba
00000010: a8fc a23d 9d0f 1b3d 9678 0ebe a45b 6ebd
00000020: 34d7 493d 8caf f4bd a685 df3d 6545 50be
00000030: a6fc 3abd 87f3 a3bd 4547 9e3c 30d0 a9bd
00000040: 1606 bd3d 9447 74be c1e7 f9bd b563 ef3c
00000050: 20c2 51bc 0f71 11be 482d b7bc ccc0 29be
00000060: 547b e8bd 57c0 a9bc dc14 e23a 127a 02be
00000070: 9ac0 2f3d 0475 34be f34b 3e3d e004 18be
00000080: a2a4 ca3b 660e 97bd 85e3 be3d 4073 00bc
00000090: 7b18 473d 348e f4bb 5b2f efbc 9cc4 6a3d
000000a0: fe90 bfbd f6a7 42bb bc92 54bd 0281 60bc
000000b0: 3723 d4bc 23f9 bdbd b4ad de3c 2c71 3b3d
000000c0: 62ad 8f3d d834 eaba 1082 fbbd 3230 4abe
000000d0: df8e 263d 7083 14be c5ba 083e 7296 3e3c
000000e0: ddac 8b3b 9719 83bd 6c23 0abe 5fe6 a8bd
000000f0: 889e 0f3d fa0a 2fbe fd8d 94bd bc1b 67bd
00000100: dc04 4ebd 0277 1abe 5587 a73d 1afc 09be
00000110: 298b 97bd d9d2 16be 7754 cabd 50db af3d
00000120: fe20 1b3e a2cc 8abd c016 19be e1d1 2fbe
00000130: c091 cb3d 3f0d d33c 0fc7 473d 0c78 21bd
00000140: 914f 453d 5c55 b23d 14d3 8b3d 06ab b9bd
00000150: 7b11 ebbd 51ff 8cbd 1b9b f4bd 5086 223d
00000160: e2a1 0d3c af8c d93d cd87 47be 3204 8f3d
00000170: 6cb5 1a3e 1d36 27be 353f 153e 74d1 39be
00000180: e365 2fbe 1c66 1bbd ec9c 27bd 42b3 46bd
00000190: f2c4 a43d 6fe9 6cbd 7afa a3bd 67f3 06bc
000001a0: 9b66 1d3e 7bd1 f3bd 2815 3bbd afe9 653d
000001b0: 2fe6 22be 1827 483d 4db6 4fbe bcc7 29be
000001c0: 9325 0f3e c643 05be 43ea 21be 3e1d 813c
000001d0: ec37 23be 8763 d0bd a1ae 7d3d 67d4 96bc
000001e0: 062a 41be 5d07 77bc 730b 1ebc a133 33be
000001f0: 5b9f 9b3d 0a02 213c 38b1 42bd 0cc1 89bd
00000200: afb9 e5bc 72fc cc3d 4cb9 e7bc 1462 83bd
00000210: aeb3 ec3d 23c4 dfbd be87 ca3d 3659 5cbc
00000220: f2ce d23d f57e 2ebd 4e2a f53d 70b5 efbc
00000230: 8e12 a03d 4038 13bd 48ab 97bd d6cc ef3d
00000240: 254f a0bd a296 133d 998c 4bbd b471 febd
00000250: 451b d8bd eed6 00be c416 013e 7336 02be
00000260: 5949 023c 8068 79bb 1d95 aabd 88d5 8f3c
00000270: 5e34 b23d 6d62 da3d 7124 b93d fbc0 15bd
00000280: 383f ff3d 334a 13be 5709 0b3e a5d3 3c3d
00000290: de03 f83d 0ed6 0dbd ee25 84bd 857a e6bc
000002a0: aaeb 38be cba1 26bd e490 ffbd d463 7cbe
000002b0: 4ac9 c2bd e4bf 183d 1c4b 53be 80b4 5ebe
000002c0: 669d 03be a231 d43d 950f 833d cec8 29bc
000002d0: 7329 3cbe 626e b0bd 9b92 81bb 1040 1abe
000002e0: 221c 9c3d fb33 8cbd fd3a f0bd b8b3 c1bd
000002f0: ad6a b63d 8bfe 36be a9d3 23bd 6f29 29be
00000300: 3f13 aa3c f470 31be 01bb 1abe 46f3 24be
00000310: 06f3 a4bd d351 23bd efa8 3c3d 44a2 293e
00000320: 1c27 623c 2eeb b1bc f6a4 65bc 09ff 953c
00000330: 165a 873d 530b d93d 166f de3d 227c 013e
00000340: 10bb ff3d bb1a f7bd 8f47 35be 34e5 2abe
00000350: fa7f 003e 93f1 e53d 5f89 2bbe fb65 e2bd
00000360: f222 fc3d 24bb ca3d 873f 3cbe 223e e1bd
00000370: f57f 0abe 33f2 7a3d e786 a2bd 3238 333d
00000380: 69d0 4bbc 5e3a 98bc 75fa 233e b43a c0bd
00000390: f209 1ebe 05ab d13d db52 213e 5747 b9bd
000003a0: 656e 2abe a28b 6cbc 7021 023d f69d f1ba
000003b0: 6e14 f63d e0bb e6bd 20f5 cfbb 559f 0cbe
000003c0: 9099 66bd 79d9 1abd c8be e8bd 9ee6 4a3d
000003d0: 4268 463d 58cc 32be 6b4b 4e3d d1e0 ba3b
000003e0: 037c dd3a 5457 0cbe aed1 85bd be63 8abd
000003f0: f53f 36be 8d6b 20bd c8fd 0dbe b303 32be

fc3.bias f4 [16]
-0.10666985 0.09793971 0.017347258 0.093266256 -0.14636832 -0.050417576 0.06379713 -0.07509911
-0.096911654 -0.2843769 0.0066105747 -0.0029194606 -0.050866738 0.020403543 -0.05141625 0.0028848785
00000000: b975 dabd 9d94 c83d d61b 8e3c 6102 bf3d
00000010: 94e1 15be a982 4ebd 12a8 823d 90cd 99bd
00000020: 9e79 c6bd d999 91be 859d d83b 6c54 3fbb
00000030: a459 50bd 5525 a73c d999 52bd 3b10 3d3b

fc4.weight f4 [5, 16]
0.076295994 0.011200422 0.09405676 -0.11678178 0.1321912 0.0876191 0.063087195 0.011078297
-0.029958034 0.114906885 0.06903552 -0.24560419 0.32067373 0.12961349 0.08908682 -0.106979
-0.11513551 0.0440044 -0.025218124 -0.18045494 -0.17477097 -0.15234517 -0.07519454 -0.16281536
-0.13842726 0.09794378 -0.035860736 -0.092704475 0.3295473 0.22038972 0.09165901 -0.004394442
-0.22569172 0.047838908 -0.122904 0.08156658 -0.19700563 -0.16179988 0.04223427 -0.054076444
-0.2257276 0.1419601 0.08996047 -0.19279546 0.3211887 0.11051092 0.08822348 0.20585528
0.06683095 -0.1964867 -0.20630442 0.03431429 0.21424817 -0.04081199 -0.048784714 0.20421419
0.22284974 0.14229958 0.17066509 -0.0645971 0.3152569 0.0514185 0.017204458 -0.14202783
0.028970208 -0.06891292 0.111132555 0.022546338 -0.12527566 -0.18330231 -0.20997334 -0.12549615
-0.087811194 0.26040423 0.16612783 0.021215156 0.3030724 0.13825466 0.10689008 -0.09789407
00000000: 1341 9c3d fa81 373c d5a0 c03d 492b efbd
00000010: 215d 073e a571 b33d dc33 813d bf81 353c
00000020: 8d6a f5bc 4d54 eb3d 7f62 8d3d aa7f 7bbe
00000030: 592f a43e 66b9 043e 2773 b63d ce17 dbbd
00000040: 2bcc ebbd f53d 343d 3d96 cebc 2ec9 38be
00000050: 29f7 32be 5f00 1cbe 98ff 99bd 12b9 26be
00000060: e0bf 0dbe c096 c83d b5e2 12bd d8db bdbd
00000070: 6cba a83e d8ad 613e b8b7 bb3d 40ff 8fbb
00000080: bb1b 67be bbf2 433d 18b5 fbbd 610c a73d
00000090: d8bb 49be deae 25be d8fd 2c3d 437f 5dbd
000000a0: 2325 67be fd5d 113e 323d b83d 2c6c 45be
000000b0: d872 a43e 8d53 e23d 83ae b43d bacb 523e
000000c0: aade 883d cf33 49be 7741 53be 248d 0c3d
000000d0: df63 5b3e 792a 27bd 7bd2 47bd 861d 513e
000000e0: b932 643e fbb6 113e d4c2 2e3e 7c4b 84bd
000000f0: 5a69 a13e 349c 523d 5df0 8c3c be6f 11be
00000100: ee52 ed3c 3822 8dbd 7799 e33d 19b3 b83c
00000110: 4348 00be 9ab3 3bbe 4003 57be 1082 00be
00000120: 5bd6 b3bd b453 853e 6a1d 2a3e 68cb ad3c
00000130: 4e2c 9b3e a192 0d3e 30e9 da3d b07c c8bd

fc4.bias f4 [5]
0.31866702 0.28812766 0.26555446 0.2987838 0.19233616
00000000: 5328 a33e 7885 933e c1f6 873e 31fa 983e
00000010: c5f3 443e
