1st_exp/dqn_model.pth (torch, 16536 bytes, 8 tensors)

fc1.weight f4 [64, 9]
000000 e4 5a 4b 3e d5 e6 cf 3d 48 72 ac bc 8a e6 8b bc
       0.19858891 0.101514496 -0.021050587 -0.017077703
000010 dd 94 9b be 04 2d 7a bc 8a d1 05 3e ea 3e d3 3e
       -0.3038701 -0.015269522 0.13068214 0.41258937
000020 76 26 81 be 64 52 6f bd c5 cd 81 be b6 f0 c8 bd
       -0.25224656 -0.058428183 -0.25352302 -0.09811537
000030 d6 81 9b bb 78 19 8a be 8c 04 34 3f d4 2f 5c 3e
       -0.0047457023 -0.26972556 0.7031944 0.2150262
000040 c8 ff c1 3e ae 40 0f 3d c1 65 fa be ab 28 4f 3e
       0.37890458 0.034973793 -0.48905757 0.20230357
000050 ab 6b cb be 89 55 9a bb eb 33 e3 3d 35 7c 0d bc
       -0.39730582 -0.0047099036 0.11093887 -0.00863557
000060 e2 40 88 be d2 52 a8 3e 46 12 f4 3d e4 1f b9 be
       -0.26612002 0.32875687 0.11917548 -0.36157143
000070 3b df 8d be 6a ef 12 bd a4 2c dc 3e aa b9 2f be
       -0.27709374 -0.035872854 0.43002808 -0.17160669
000080 b7 89 07 bf 39 34 41 bc 25 14 d3 3e 71 d8 ae bf
       -0.5294451 -0.011792236 0.41226307 -1.3659803
000090 12 1e 45 3e 37 48 90 3d 9a e6 37 be 64 04 8f be
       0.19249752 0.07045024 -0.17959061 -0.27933037
0000a0 01 a2 ca 3d 06 44 98 be b4 17 45 3d 00 9b c0 be
       0.09894181 -0.29739398 0.04811831 -0.37618256
0000b0 80 8b 18 3f 30 98 de be 8d dc 22 be f5 31 33 bf
       0.5958786 -0.43475485 -0.15904446 -0.69998103
0000c0 40 2e 37 3e 05 ec 63 be 88 bc fd be cf 98 40 be
       0.17888737 -0.22258003 -0.495579 -0.18808292
0000d0 ab 11 e0 3d a6 91 86 3e 16 b0 ce be 4a 5a 07 bf
       0.1094087 0.26282996 -0.40368718 -0.52872145
0000e0 2b ea 4a bf f6 ad dd 3e 12 93 b6 3d 5f 25 45 bf
       -0.7926356 0.43296784 0.0891477 -0.7701015
0000f0 bf cd 93 be 96 52 78 3b 23 f1 78 bf f9 2d ce be
       -0.2886791 0.0037891022 -0.97242945 -0.4026945
000100 bf 7c 35 bc 49 de 12 be b9 62 49 be bc 28 19 be
       -0.011077105 -0.14342608 -0.19666566 -0.14956945
000110 5a 0a 29 3d cc b0 a9 3e 45 3a f2 bd 19 f0 44 3f
       0.041269638 0.33142698 -0.1182752 0.7692886
000120 5e 76 71 bd f8 21 67 3e da 4f 78 3e 28 ed dd 3e
       -0.058950774 0.22571552 0.24249211 0.43344998
000130 7a 82 af 3e 04 31 d7 be 95 9c fb 3d e3 54 88 3e
       0.34279233 -0.42029583 0.12285725 0.26627263
000140 1b 5f 97 3d f1 8d 06 3e f8 bd 4b 3e a9 e8 09 3e
       0.07391187 0.13140084 0.19896686 0.13467659
000150 d6 30 78 be 49 b2 ed bd e8 24 06 3e 11 43 a3 be
       -0.2423738 -0.11606271 0.13100016 -0.31887105
000160 10 79 83 3e 0e 12 6a 3f bd fc 02 be f4 04 35 be
       0.256783 0.914338 -0.12791725 -0.1767767
000170 6c 35 d4 be fd 8d 8a 3d b2 a5 68 be a2 52 20 be
       -0.41447008 0.06765363 -0.22719458 -0.15656522
000180 dc 31 3f be 38 2f e3 bd a3 8c 96 3f 5a 0e 60 3e
       -0.18671364 -0.11092991 1.1761669 0.21880475
000190 ab 1a 8e bd ce ff c7 be b7 12 79 be 5f fb 69 3e
       -0.0693868 -0.3906235 -0.24323545 0.22849797
0001a0 a7 9b 30 3d c9 bc aa 3e 3d 1c df 3d db c2 40 3f
       0.04311719 0.33347157 0.10894058 0.75297326
0001b0 67 27 b1 3e 66 47 0e 3e 71 5e c3 bd ac be 12 be
       0.34600374 0.13894424 -0.09539498 -0.14330548
0001c0 52 40 98 be e0 c2 ab bc a1 e5 19 be 60 a7 a9 3e
       -0.29736573 -0.020966947 -0.15029003 0.3313551
0001d0 b4 4c 84 be d7 49 aa be 01 ee 7a be a2 3f 56 bf
       -0.2583977 -0.3325946 -0.24504854 -0.83690846
0001e0 83 8c b9 3e f4 a4 88 be 2f d2 04 3e c1 f7 ec bd
       0.36240014 -0.2668835 0.12970804 -0.11570693
0001f0 bf 19 2f bd 79 7c 7c 3f af ff b8 3c 42 fe 2e bd
       -0.042749163 0.9862743 0.022582857 -0.042722948
000200 8e 33 0f bd 6f 7b 10 3d 6a ff 8d be b9 3c 1d be
       -0.034961276 0.035273965 -0.27733928 -0.15355195
000210 3c df 9a be 3e 5e 2e 3d e9 13 b4 3f 61 93 84 be
       -0.3024844 0.042570345 1.4068576 -0.2589369
000220 3a 2b 9a 3e e8 a1 5c bd 85 0e eb bd e6 d1 a9 be
       0.30111104 -0.053865343 -0.11477379 -0.33167952
000230 68 b4 13 3e 03 75 73 be d7 e5 7d 3e 50 b6 e6 3e
       0.14424288 -0.23775105 0.24794708 0.45060968
000240 9a 91 fb bd cf 57 83 3e ed 19 14 be 5d 87 82 3e
       -0.12283631 0.2565293 -0.14463015 0.254939
000250 26 56 1d bd 83 2e ce 3e ff 33 aa 3e 9e aa 8a 3e
       -0.038412236 0.4026986 0.33242795 0.27083296
000260 6e 09 d9 be fa be 51 be 8e 64 c3 3e 3c fc fb 3b
       -0.42390007 -0.20483008 0.38162655 0.007689981
000270 4f bd f5 3e 39 93 8f 3d 78 dd c2 be d1 27 3f be
       0.47995993 0.07010502 -0.38059592 -0.18667533
000280 43 44 bd 3a 27 b6 cc be 29 5f 6a 3e 1d 65 05 3f
       0.0014439899 -0.3998272 0.22887863 0.5210741
000290 57 96 b8 be 2e e4 60 bc e8 da 92 be f2 11 9c 3e
       -0.360522 -0.013726277 -0.28682637 0.3048244
0002a0 68 7c 33 be 8e 17 74 3e f0 f3 9c be c7 b8 5a 3d
       -0.17527926 0.2383711 -0.3065486 0.053398874
0002b0 70 ed 04 3f 4e c1 06 3e 2a a4 83 be 04 34 eb be
       0.519248 0.13159677 -0.25711185 -0.45938122
0002c0 0b e8 57 3f c3 4d 20 3e ec 50 61 3d ef 8d 3c be
       0.84338444 0.15654664 0.055008814 -0.18413518
0002d0 6e 61 3f be ee f5 3b be 68 2c 43 bf 48 21 fe 3e
       -0.1868951 -0.18355533 -0.76239634 0.49634767
0002e0 82 4e 2f be cc ac 93 bf 28 96 e6 bd a0 c8 76 bd
       -0.17119792 -1.1537108 -0.11259109 -0.060249925
0002f0 b4 06 84 3f 8d ba 11 3e 81 b3 b7 bd 6d cc b7 be
       1.0314546 0.1423132 -0.089697845 -0.35898152
000300 22 c5 8a be 08 68 c2 be 6f 95 ec 3c 71 4e 5e bc
       -0.27103525 -0.37969995 0.02887985 -0.013568507
000310 10 32 18 3e 82 92 96 3f db 70 c5 3e 6e 63 d0 be
       0.14862847 1.1763461 0.38562664 -0.4070086
000320 3c 8e 2a be bd 99 f7 3d f7 51 8d bd 5d a7 4c 3f
       -0.1665582 0.1208987 -0.06900399 0.79942876
000330 0d a2 cf bd 4f af 8e 3e e9 5f 8e bd 13 ba e5 bd
       -0.101383306 0.27868125 -0.06951887 -0.112171315
000340 5c c7 c9 3c de ef 13 bd f7 bb 88 3e 63 b9 55 be
       0.024631195 -0.036117427 0.26705906 -0.208715
000350 8f 79 7c bf 0a 16 09 3e 17 ca dd bd 05 a1 ff 3e
       -0.98622984 0.13387313 -0.10829561 0.49927536
000360 8b 23 b3 3d c0 a9 94 3e 70 e7 da 3e ab 7c ba 3d
       0.08747014 0.2903576 0.42754698 0.0910581
000370 57 e7 db be d4 d4 a3 bd 68 ee 17 3e 46 fc f2 3d
       -0.42949936 -0.07999578 0.14837039 0.118645236
000380 83 a2 ea 3f 67 86 43 3e a6 08 80 be a8 99 24 3e
       1.8330845 0.19094239 -0.25006598 0.1607424
000390 d7 dc 90 3e 0c 42 a6 3e c9 40 b2 3f cb cd c2 bc
       0.28293487 0.32472265 1.3926021 -0.02377977
0003a0 9c f4 f7 bd 12 4e a7 3f 8c e0 13 bb ed 3d 16 be
       -0.121072024 1.30707 -0.002256426 -0.1467206
0003b0 43 a3 27 be 70 2b b1 be 73 71 8c 3e 09 b3 dd be
       -0.16370873 -0.34603453 0.27430305 -0.43300655
0003c0 79 08 8e be ba ab bc 3e 24 ab 95 3f 90 4d dd be
       -0.2774084 0.36849767 1.1692853 -0.43223238
0003d0 4e 70 3f bd 23 03 9d 3e f4 19 ac be ca 1b 1e be
       -0.04673796 0.30666456 -0.3361355 -0.15440288
0003e0 59 fe ba be 82 29 1c bd 03 3c 5b 3e 94 30 bf 3f
       -0.36522177 -0.038125522 0.21409611 1.49367
0003f0 37 8d af 3d bc 8b 47 be 92 4e b0 3d 16 19 8c 3e
       0.085718565 -0.19486898 0.08608736 0.2736289

fc1.bias f4 [64]
000000 b9 d7 0b 3f cc e8 2c 3e fa 6a ac 3e 3b c1 dc be
       0.5462604 0.1688568 0.33675367 -0.43116173
000010 d4 e3 20 3d 4b 09 d4 3d ad a3 3d bf a6 19 60 3f
       0.039279774 0.10353335 -0.74077874 0.87539136
000020 90 2f ab 3e bb cd 4f 3f 29 07 81 3f dd c2 34 3f
       0.33434725 0.81173295 1.008031 0.7060984
000030 9a 5e d4 be e0 c5 8d 3f 8e dd 8a 3f cd 84 a9 3e
       -0.41478425 1.1076012 1.0848863 0.3310913
000040 fc ff 22 bf 53 02 3f be 40 51 57 be 88 9b 03 bf
       -0.6367185 -0.1865323 -0.21027088 -0.51409197
000050 94 00 a7 3e 76 60 71 3f 38 ea 6a 3e d9 6f 0b 3f
       0.3261763 0.9428781 0.2294091 0.5446754
000060 a2 42 96 3f 2f 83 55 3f e9 6b cd 3d e8 fb 0c 3f
       1.1739085 0.83403295 0.10030348 0.5507188
000070 66 cf 49 3f fa d3 86 bf c9 20 da bd 2d 6e f4 be
       0.7883209 -1.053344 -0.106507845 -0.47740307
000080 60 e7 28 3f ee 8f 44 3e c0 71 ac 3e ca 62 bc be
       0.6597805 0.1919553 0.33680534 -0.3679412
000090 8a 5c 48 3f 94 1c 42 bd 82 57 e9 3e 98 ef 11 3c
       0.78266203 -0.047390535 0.45574576 0.008907221
0000a0 8d 06 01 bf f2 e0 09 bf d4 46 a5 3e 68 ab 04 3e
       -0.5040062 -0.53858864 0.322806 0.12956011
0000b0 31 0a 5f 3c 1e fb f0 3e 97 42 0d 3f fd db 1e 3e
       0.01361327 0.47066587 0.55179733 0.15513606
0000c0 3c b9 c3 bd 0c af 33 3f 2b 1d 84 be da fb e6 bd
       -0.09556815 0.70188975 -0.25803503 -0.112785056
0000d0 39 0c 20 bf 38 4d af 3e 99 07 7f 3f 52 15 cd 3d
       -0.6251865 0.342386 0.9962097 0.10013832
0000e0 27 51 41 bd 8a b7 fc bd 2b ce 16 3f ee 07 8b 3f
       -0.047196534 -0.12339695 0.5890834 1.0861795
0000f0 e1 13 d4 be 42 26 b8 bd ac 9c 39 3f 80 a6 1e 3d
       -0.41421416 -0.08991672 0.7250469 0.038733006

fc2.weight f4 [32, 64]
000000 38 92 16 3e 3c 7b 49 be 68 3e 18 3e 4c d7 ee 3d
       0.14704216 -0.19675916 0.14867556 0.11662158
000010 27 f7 ff bd 2c 99 2b bb d4 57 d1 3d 2b 2f b8 bd
       -0.124983124 -0.0026183827 0.1022183 -0.089933716
000020 4c 6a 5e be 87 ee 7e be ef d1 80 be 66 f4 30 3e
       -0.21720237 -0.24895678 -0.25160167 0.1728073
000030 8c e2 91 3b 8d 0c c6 bb 0e 8f 33 3d 71 89 cc bd
       0.0044520553 -0.0060439766 0.0438376 -0.09987152
000040 bf 2f 03 3e 78 35 7e bd 06 e9 d9 bd ca 6d 94 be
       0.12811182 -0.06206271 -0.10640149 -0.28990012
000050 97 bf 8a bc 27 e0 f8 bd b1 82 c6 bd 3d 3d 73 3e
       -0.01693706 -0.12152129 -0.09692896 0.2375383
000060 34 e8 67 bd e6 6c 06 3e 6e d0 52 3e ef 99 1d 3e
       -0.05661793 0.13127479 0.20587322 0.15390752
000070 38 5f 2c b9 a1 b2 1b be 40 bb 8b 3c 75 50 95 3e
       -0.0001643867 -0.1520486 0.017057061 0.29162946
000080 09 d3 0e be 94 f6 04 3e 53 7d f5 bd 1d 5e 25 3e
       -0.13947691 0.12984687 -0.11986794 0.16149183
000090 9d 8b 4b 3c 2e 85 80 3d f3 7d 40 bd 0a 96 fe be
       0.012423423 0.06275402 -0.046995115 -0.49723846
0000a0 75 95 29 bd 13 7f b7 3c 65 06 72 3e 69 ae 48 3d
       -0.0414023 0.02239946 0.23635252 0.048994455
0000b0 13 cc c9 be bc 41 9b bc 97 3b 1e ba a8 12 c1 bd
       -0.3941351 -0.018952243 -0.0006036101 -0.094273865
0000c0 2a 8c 50 bd 87 14 27 bd e4 38 6b bd de e6 65 3d
       -0.05091492 -0.04079106 -0.057427302 0.056128375
0000d0 56 db 0e 3e 57 d3 9f 3d 72 1f 50 be c6 45 bb 3b
       0.13950858 0.07803982 -0.20324495 0.0057151048
0000e0 33 b3 8f be b8 41 a7 be d5 73 4d 3d 8d cc 17 bd
       -0.28066406 -0.32667327 0.050159294 -0.03706031
0000f0 c4 7d 46 3d cb 0a 3f be ec 5d 87 be 91 d8 d3 3d
       0.048459783 -0.18656461 -0.26438844 0.10344041
000100 ef 47 a3 3e df 39 3a 3d ec f7 47 be c3 0b 41 be
       0.31890818 0.045465346 -0.19528168 -0.18852143
000110 63 fa 61 3e 9b 79 92 bd 94 e9 92 be 4f 73 b8 3d
       0.22068171 -0.07152101 -0.2869383 0.09006368
000120 1a c8 7a 3e bf e4 45 bc 46 3a 77 3e 82 81 c4 bd
       0.24490395 -0.012078463 0.24143323 -0.09595014
000130 d2 d1 6c be db 4e 47 3e 31 33 b2 3e dd 9c 16 be
       -0.23126915 0.19463675 0.3480468 -0.14708276
000140 88 e8 e0 bd 22 f5 4f be 87 51 94 bd 10 10 6d be
       -0.10981852 -0.20308354 -0.072421126 -0.23150659
000150 49 68 50 3e d4 ae 43 3e 7e cc 70 bc 07 4d 44 3e
       0.20352282 0.1910966 -0.014697192 0.19170009
000160 77 e1 d7 3d 05 9d 93 bd 51 c5 84 bd 31 29 40 3d
       0.10541051 -0.072076835 -0.064829476 0.046914283
000170 6d ad 42 3e 34 c2 45 be 40 59 bd 3d 0f 39 2f be
       0.19011469 -0.19312364 0.09245539 -0.1711161
000180 96 5b be 3d ca 05 0b 3e 93 79 04 3e ed c8 c6 bd
       0.092948124 0.13576427 0.12937002 -0.09706292
000190 30 12 84 3e 10 1a d9 3c ea a1 77 3c b7 1f b1 3b
       0.25795126 0.026501685 0.015114287 0.005405392
0001a0 1f fa 50 3d 80 1c 27 be 9d 7a 6e 3e 71 9e 96 3d
       0.051019784 -0.16319466 0.23288961 0.07354439
0001b0 53 6f e2 3d 01 f4 2a 3e 70 4b 69 3e 8e b8 ff 3c
       0.1105639 0.16694643 0.22782683 0.031215932
0001c0 1e 52 1c 3d 66 59 d2 3c fd 47 2a be 1d e8 88 3c
       0.03816425 0.025677394 -0.16629024 0.016712243
0001d0 a4 0d 7f 3c ef fb 8c 3d 8f 97 89 3e 66 9a 62 3e
       0.015567217 0.0688399 0.26873443 0.22129211
0001e0 c6 b7 27 be a3 e9 16 bc bf 47 40 3d ae d2 56 3e
       -0.16378698 -0.009210977 0.046943422 0.20978805
0001f0 49 2b 8e 3c a0 3d 47 3c 37 9f 59 3d 19 4d 4a 3d
       0.017354624 0.012160689 0.053130355 0.049389932
000200 f6 30 c5 bc 86 7e 3d 3e cb e5 cf bd b1 37 5a be
       -0.024071198 0.18505296 -0.101512514 -0.21310307
000210 fb 35 d2 3c fd c9 91 bd 36 59 5b be 6c 96 59 be
       0.025660506 -0.07118604 -0.2142075 -0.21248788
000220 4d bb 04 3d 21 a8 f7 3d f7 8c a1 bc c6 ac 0d 3e
       0.032405186 0.12092615 -0.019720538 0.13835439
000230 9f e7 7d 3e ec d1 28 be 5d 0f 26 be ac 9a 6f bd
       0.24795388 -0.16486329 -0.16216798 -0.058497116
000240 b5 48 c3 bd 15 72 07 bd 80 3f 6b 3d 0f 82 15 3e
       -0.09535352 -0.03306778 0.057433605 0.14600395
000250 5f 9d 77 3e 14 c4 5f 3e f6 23 c6 3d cb ee 5c 3d
       0.24181126 0.21852142 0.09674828 0.05393867
000260 1c 69 54 3e 01 ab 87 bd f9 64 09 3e ea ab 12 3e
       0.20743221 -0.06624413 0.13417424 0.14323393
000270 6d a6 57 bd 4b be 3d 3e 04 48 1d 3e 71 67 c7 3c
       -0.05264895 0.18529622 0.15359503 0.024341317
000280 cd be 76 be 74 56 f4 3d d8 85 62 bb 2e da c9 bd
       -0.24096222 0.11930552 -0.003456464 -0.098560676
000290 aa 1e 3a 3b d6 73 5f 3c 39 02 1e bd 96 72 65 3d
       0.0028399625 0.013638457 -0.03857634 0.05601748
0002a0 00 f3 c2 bd 5d c9 4e 3c ff 5e 45 3d 04 41 09 bd
       -0.09519005 0.012621251 0.0481863 -0.03350927
0002b0 c1 40 7b 3e 0e 68 5c be 64 1d c5 bd 28 38 c4 3d
       0.2453642 -0.21524069 -0.096247464 0.095810235
0002c0 dd ca 10 be 64 22 1e bd d6 8d 5f 3a a5 c2 1f 3e
       -0.14139886 -0.038607016 0.000852791 0.15601595
0002d0 b1 84 fc bd 6b 7c 8b bd 5c 99 6d be 3f e7 83 be
       -0.123299964 -0.0681084 -0.23203033 -0.25762364
0002e0 d9 a8 8f be 40 24 f4 3c 40 3e 30 be 08 fb 15 be
       -0.28058508 0.029802442 -0.17211246 -0.14646542
0002f0 01 4f 84 bd 84 6b 38 3e fc fa de bd bc 83 3e be
       -0.06460381 0.18009764 -0.10887715 -0.1860494
000300 1b e5 b6 3d 5f bf 14 bf ed 3c 88 bd 12 71 09 bf
       0.08930417 -0.5810451 -0.06652246 -0.53688157
000310 c8 32 2f bf 54 4f ef 3c 77 f7 0f 3e 2b 43 aa bd
       -0.6843686 0.029212631 0.14059244 -0.083135925
000320 ec ce f9 3c 86 62 c0 3c d4 2e 1e bd 44 7d d0 3c
       0.030494176 0.02348448 -0.038618878 0.025450356
000330 00 a2 29 3e 43 6d 64 bd 76 7c 77 bd 48 fb 1f be
       0.16565704 -0.055768263 -0.06042143 -0.156232
000340 0d f0 c3 3c 92 2f 31 bd 7f 7c 04 3e 0d 33 b1 be
       0.023918176 -0.043258257 0.12938116 -0.3460926
000350 89 07 78 bd cd 86 ce be cf 79 74 be 3e ed 29 be
       -0.06055406 -0.4033722 -0.23874591 -0.16594407
000360 76 56 32 be 10 f4 7d be 08 bd 2b 3e 31 44 0d be
       -0.17415795 -0.24800134 0.16771328 -0.13795544
000370 83 a7 8b be 80 b5 8a be 59 95 b1 bd e1 e9 8e be
       -0.2727624 -0.270916 -0.08671064 -0.2791281
000380 ea d1 e1 bd 78 35 69 3e 7f 74 67 bd 65 ca 69 bb
       -0.11026366 0.22774303 -0.056507584 -0.0035673615
000390 32 4a 63 be 57 79 2f 3d b5 ba ce 3c 49 f3 40 3d
       -0.22196272 0.042840328 0.025235513 0.047107015
0003a0 f8 44 ee bd 13 92 ab bc 87 96 4b bd ab 72 11 be
       -0.116342485 -0.020943677 -0.0497041 -0.14203899
0003b0 06 38 1e be 89 20 a2 be 08 0b 29 3e 82 77 1f be
       -0.15451059 -0.31665447 0.16508114 -0.15572932
0003c0 11 1f 0f 3e a2 6c 88 bd 81 c0 a5 bd f9 08 e4 be
       0.13976695 -0.06661345 -0.08093358 -0.44538096
0003d0 a3 a0 ab 3c cf 6a 6c 3d 1a 0d dc bc 86 94 36 bf
       0.020950621 0.057719048 -0.026861716 -0.7132038
0003e0 b3 05 92 3d 16 0a 2c 3e 8e a4 8e be 11 32 a2 be
       0.07129993 0.16800722 -0.2785992 -0.31678823
0003f0 7e 52 8d 3d b7 f8 62 bd 16 43 44 3e a8 58 2d 3e
       0.069005 -0.055412974 0.19166216 0.16928351

fc2.bias f4 [32]
000000 e2 de 27 3f 13 fa 83 3f b4 a5 11 bf 92 38 5c bd
       0.6557447 1.0310692 -0.5689347 -0.053764887
000010 27 50 e2 3d 6d 02 20 3f cc 8b 44 3f 10 43 ba 3d
       0.11050444 0.625037 0.76775813 0.090948224
000020 06 8a 94 bd a2 7b a8 3f 26 b2 0d 3f 34 6f 8d bd
       -0.072528884 1.316273 0.5534996 -0.06905976
000030 81 0f 8f bd 83 db bd be b8 3c ab 3e 74 e7 59 3e
       -0.06985379 -0.37081537 0.33444762 0.21279699
000040 72 22 22 3f a6 18 72 bf 52 12 80 be 93 bc 98 3e
       0.6333381 -0.9456886 -0.25013977 0.2983137
000050 7b fa 3b 3f 72 76 01 3e e6 95 88 3e 5a 41 af bc
       0.7342908 0.1264284 0.26676863 -0.021393467
000060 97 ba 61 be 37 da b6 3d 03 4d 49 bf 82 5d 3f bd
       -0.22043835 0.0892834 -0.78633136 -0.046720035
000070 88 6b b5 3d c5 f7 66 3e 70 7f 0b 3f fe 31 0c be
       0.088584006 0.22555454 0.5449133 -0.13690946

fc3.weight f4 [16, 32]
000000 2f 80 e2 be 1d 80 a3 3d 4d ec 90 bc 83 71 40 3e
       -0.4423842 0.0798342 -0.017690802 0.18793301
000010 71 ba 92 3d f2 4b 4a bf 0c 67 3b 3e 1d ac ab 3d
       0.07164467 -0.79022133 0.18301028 0.083824374
000020 04 ab 07 3e 3b 13 aa bd f4 54 e3 3d 0c d2 a7 bd
       0.13248831 -0.08304449 0.11100188 -0.0819436
000030 ce 6a ee bd 17 2b 08 bb 55 b8 24 3d 93 46 f3 ba
       -0.11641465 -0.0020777637 0.040214855 -0.0018560461
000040 c8 01 17 be a5 0d 39 bd a8 b4 16 be 38 fa 96 3e
       -0.14746773 -0.045179028 -0.14717352 0.29487777
000050 7e f3 98 3c 4e 6f 54 bf ec 8a c1 3d f1 37 1f be
       0.018670794 -0.8298234 0.09450325 -0.15548684
000060 8d b3 27 3e 7d 6d a3 bd 3f 93 f5 3b 87 06 0c 3e
       0.16377087 -0.079798676 0.0074943597 0.13674365
000070 ac 20 ab 3d 87 a6 04 3e fe 46 22 3e 3a 2f eb 3c
       0.08355841 0.1295415 0.15847394 0.028709043
000080 af d7 6e 3d 16 11 21 be 38 b3 12 bc f5 db 18 3e
       0.05831116 -0.15729174 -0.008953862 0.14927657
000090 ab 52 0a 3e 99 b6 c6 3d f9 1d 1d 3d 2f df 42 3e
       0.13508098 0.097027965 0.038358662 0.1903045
0000a0 c2 a1 71 3d bb 97 2a be b7 09 8d 3d 44 17 b9 3d
       0.058992155 -0.16659443 0.068866186 0.09037641
0000b0 ca 67 92 bd 80 4e f4 3c 63 83 24 be 2d c1 c0 bd
       -0.071487024 0.029822588 -0.16065745 -0.09411845
0000c0 36 04 b2 bd 85 c6 d9 38 18 56 e7 3d de ce 8e bd
       -0.086922094 0.000103843435 0.11295718 -0.069730505
0000d0 9c e7 84 bc e1 c4 10 3e 0f a1 ca 3d 59 f4 eb 3d
       -0.016223721 0.14137603 0.09894001 0.11521215
0000e0 b5 3d 32 3e c9 1d bf bd 50 c2 8d bd b7 90 ad 3d
       0.17406352 -0.09331853 -0.06921828 0.08474868
0000f0 ed 3f cf bc ee 9d 37 bd 38 99 b3 3d 82 97 9c 3b
       -0.025299037 -0.044828348 0.087694585 0.0047788033
000100 61 d3 17 bb 09 81 94 3d d6 8d c5 be a7 49 03 be
       -0.0023166763 0.07251174 -0.38584775 -0.12821065
000110 fe 51 7e be 9f d2 f3 3e 80 51 36 be 28 4a 2e be
       -0.24835965 0.4762163 -0.17804527 -0.17020476
000120 ee 49 d7 3d 9f 94 4c 3d ce b5 7e be ea c1 dd bd
       0.10512148 0.049946424 -0.2487404 -0.10828002
000130 ac 9c 3f bf 4a 1a 32 3e 0f 7a 0a bf 39 56 50 3e
       -0.7484844 0.17392841 -0.54092497 0.20345391
000140 dc b6 cd bd f2 50 f1 bd c4 95 74 3c d7 8f 24 3e
       -0.10044643 -0.11783017 0.014928285 0.16070496
000150 8c b3 19 3d e7 db d9 bd 7b 0e 8d 3e 90 57 39 bf
       0.037524745 -0.10637646 0.2755011 -0.72399235
000160 a7 c1 65 3e a1 6b 5a bd cb c9 9f be 5c da c5 3c
       0.22437154 -0.0533253 -0.31208643 0.024151973
000170 66 18 2a be 32 b0 11 be 94 36 26 be 5a 22 a2 be
       -0.1661087 -0.1422737 -0.16231757 -0.31666833
000180 c6 c9 39 be e6 01 49 3d 37 f7 03 be fd 44 43 be
       -0.18143377 0.049074076 -0.12887274 -0.19069286
000190 32 c5 03 be 0b c8 ff bd 9e cc 9a 3d bd 82 5d bd
       -0.12868193 -0.12489327 0.07558559 -0.05407976
0001a0 16 ca 94 bd a2 9c 4d be 2f 64 11 3e 76 36 7a bd
       -0.07265107 -0.20079282 0.14198373 -0.061087094
0001b0 6f 48 1a 3e 00 d1 b5 3c 59 ed da bd c2 30 1d be
       0.15066694 0.022194386 -0.10689802 -0.15350631
0001c0 f4 eb 2c be d4 27 07 3e f3 dd 10 3e fc 57 65 bd
       -0.16886884 0.13198787 0.14147167 -0.05599211
0001d0 80 f9 fe bd f1 9f ae bd c0 95 2a be 88 c6 86 bc
       -0.12449932 -0.085266 -0.16658688 -0.016452089
0001e0 56 0a f7 3d b4 87 f9 bd 00 ee 7d ba ab 19 fa bd
       0.12062518 -0.121840864 -0.0009686649 -0.12211927
0001f0 38 cd 16 bd 15 7f ce bd af e5 a4 bd 9e cb 71 bd
       -0.036816806 -0.10082833 -0.08051621 -0.059032075
000200 84 48 04 be 28 be 04 be d1 64 22 bc e8 5c 9f bd
       -0.12918288 -0.12963164 -0.009911732 -0.07781392
000210 91 a5 22 3e e0 46 be bd 04 c9 22 3b d1 83 20 bd
       0.15883471 -0.09290862 0.0024839053 -0.03918821
000220 23 ba 03 be 04 c0 06 be 4e 05 8e 3c e5 fe aa 3d
       -0.12863974 -0.13159186 0.017336514 0.083493985
000230 3c 42 69 3d ae 40 64 3d 9e ee 00 be 90 0b 84 bd
       0.05694793 0.055725746 -0.12591025 -0.06447518
000240 15 2d 65 bc e2 62 79 3d 31 cf a6 3b d3 a5 a7 bd
       -0.013987799 0.060885318 0.005090617 -0.08185925
000250 5a 49 73 bc 6f ce b8 bd 56 68 07 3e 2e 6b 41 bd
       -0.014849031 -0.09023749 0.13223395 -0.047221355
000260 8a f9 71 bd 3c aa 90 3d c0 5f 1e be db fb 13 3d
       -0.05907587 0.0706372 -0.15466213 0.03612886
000270 15 eb ac bd 15 65 2e 3e 6b fa c3 bd d7 0e 32 bd
       -0.08443276 0.17030747 -0.09569248 -0.043471184
000280 5b aa 08 3e 7a aa 04 3e 94 36 22 be 6f 73 3c 3d
       0.13346235 0.12955657 -0.15841132 0.046008524
000290 bf 69 75 3d b6 31 9d 3e f4 5e e1 3d d0 69 9c 3e
       0.0599153 0.3070199 0.11004439 0.3054948
0002a0 a6 29 64 3d 36 88 af 3d 49 61 84 3d 4a ba d4 bd
       0.05570378 0.08570902 0.06463868 -0.10387094
0002b0 79 e4 b0 bb 0d 66 23 be 3d 9e ee 3d aa 60 bd 3d
       -0.00539833 -0.15956898 0.11651275 0.09246953
0002c0 f8 8d c3 3d 91 60 0d be 88 97 de bd f5 53 a1 3d
       0.09548563 -0.13806368 -0.10868746 0.07877342
0002d0 01 37 28 3e 48 f1 37 3e fd 36 51 3e 08 78 f0 3d
       0.16427232 0.17963135 0.20431133 0.11741644
0002e0 6f c0 33 be 62 65 1c be c6 9f 5a be 95 f8 c4 3d
       -0.17553876 -0.1527305 -0.21350011 0.09617726
0002f0 ac ad 8f 3c 8f 8e f1 3d 54 16 e1 3b 69 d3 ed bd
       0.017538868 0.11794769 0.006869117 -0.11612589
000300 e1 53 92 3d 62 98 16 3e 40 7c ff bd fa 42 9e bd
       0.07144905 0.14706567 -0.12474871 -0.077276185
000310 3c ec 8a be 98 f3 29 3e 51 e9 02 3e ac 19 9d 3c
       -0.27133358 0.1659683 0.12784316 0.01917728
000320 b3 51 86 3d 5d 3c 78 3d fa 92 8d bc 5e 73 0f bd
       0.06558552 0.060604442 -0.017281998 -0.035022132
000330 e2 e1 48 3e a9 5a db be 39 6b 12 bd fe 8f 86 be
       0.19617417 -0.42842606 -0.035746787 -0.26281732
000340 cd 81 fb bd eb d3 07 be f3 ef 5c 3d 9c 2a 5c be
       -0.12280617 -0.13264434 0.05393977 -0.21500629
000350 93 81 2d be 18 23 59 3e 20 c1 ac bc ed e0 1a be
       -0.1694396 0.21204793 -0.021088183 -0.15124865
000360 5b a5 25 bd 30 9d 99 be e4 5e 4e 3b bc 6b be bc
       -0.0404409 -0.30002737 0.0031489665 -0.023244731
000370 c1 25 28 3e 72 a1 73 3e 1e d9 d1 bd 35 93 0e 3e
       0.16420652 0.23792055 -0.1024649 0.13923343
000380 4b 56 30 be 2a 4e 91 3d f2 19 36 be e7 3d 68 3c
       -0.17220418 0.07094987 -0.17783335 0.014174915
000390 07 7f 45 be 61 5b b0 3d 0f 1b f7 3a 54 1f 36 3e
       -0.19286738 0.08611179 0.0018852669 0.17785388
0003a0 2e d1 81 bd b5 70 b5 bd 7e aa 21 be 6d fc e4 bc
       -0.06338726 -0.08859388 -0.15787694 -0.027952397
0003b0 ca c8 03 be 90 b1 92 bd 3f b1 0b be f6 f8 2e be
       -0.12869564 -0.071627736 -0.13641833 -0.17087159
0003c0 08 1d 6c be 0b d0 88 3c 40 6a 3b be 88 53 f5 bc
       -0.2305795 0.016700765 -0.1830225 -0.029947057
0003d0 0e 6d a4 bd ea 91 48 be 0f 80 c9 bd b3 de 90 bd
       -0.08028613 -0.19586912 -0.09838878 -0.070737265
0003e0 c6 50 96 3d e1 68 89 3d 05 da 17 be 4c 72 16 3e
       0.07339625 0.06709457 -0.14829262 0.14692038
0003f0 dd 9c 31 3e c4 1b 35 be 2c 1e a5 bd 54 41 80 3d
       0.17344995 -0.17686373 -0.080623955 0.0626246

fc3.bias f4 [16]
000000 d0 74 e3 3d 44 89 b2 3c 54 27 6a b8 00 cc da 3d
       0.111062646 0.021793969 -5.5826575e-05 0.10683441
000010 ca 87 ff 3d d4 06 2c 3e 81 1d 37 bd 8d 2a b0 ba
       0.124770716 0.1679948 -0.04470587 -0.0013440415
000020 31 cd ad 3d 81 b5 56 bc 6d f2 21 3f 8d df 09 3f
       0.08486403 -0.013104797 0.6326054 0.53856736
000030 81 8f 84 3f 88 1a bb 3e b6 2c a7 3d 41 10 32 be
       1.0356294 0.3654368 0.08162825 -0.17389013

fc4.weight f4 [5, 16]
000000 88 b0 75 3c db bf 3b be a1 a9 a7 3e f0 f9 5e be
       0.014995702 -0.18334906 0.32746604 -0.21775031
000010 1b fd dc 3d c8 10 88 3e c0 e3 ae be 08 33 81 bd
       0.107904635 0.26575303 -0.34158134 -0.063085616
000020 8d 22 6e 3e 72 21 32 3e d4 59 cb 3d 57 67 1c 3e
       0.23255368 0.17395571 0.09929243 0.15273796
000030 5e 7c 86 3e c1 ca 63 3e f0 1e a7 bd 5a a0 09 be
       0.2626676 0.22245313 -0.08160198 -0.13440076
000040 6c ef 84 3d b6 ce 47 bd 3a d0 83 3d a0 dd 6e bc
       0.064909786 -0.04878112 0.064362004 -0.014579207
000050 01 24 bd bd e4 71 42 3e 69 13 b8 3c cc 4b 0a 3e
       -0.09235383 0.18988758 0.022470193 0.13505477
000060 02 d9 92 3e 7f 3a 8d 3e 94 6d 97 3e f2 99 5f 3d
       0.2868119 0.2758369 0.2957579 0.054590173
000070 f3 2f 3e 3e 51 b0 4a 3e a0 99 0d be 40 25 c4 3c
       0.18572979 0.19793822 -0.13828135 0.023943543
000080 9e 64 85 bb d3 da 09 3e db 68 2e 3e db 20 4f be
       -0.0040708324 0.13462381 0.17032187 -0.20227377
000090 11 44 33 3e cf c9 91 3e 76 06 d3 bd 69 d6 06 be
       0.17506434 0.2847428 -0.10303967 -0.13167728
0000a0 53 56 79 3e 3d df ab 3e fb 75 10 3e ad 67 2d 3e
       0.24349336 0.33568755 0.14107506 0.1693408
0000b0 38 16 57 3e 92 ae 35 3e 55 9a 0c be 0f e7 53 be
       0.2100457 0.17742375 -0.13730748 -0.2069361
0000c0 63 63 a9 3c 19 81 76 3e f0 2c 2f 3e 70 47 31 3e
       0.020677274 0.24072684 0.17106986 0.17312407
0000d0 6e ca 9a bc 0d 9c a4 bc 28 c9 82 be 88 dd b1 3d
       -0.018895354 -0.020093942 -0.25544095 0.08684832
0000e0 74 16 9a 3e 7d 5f 3c 3e 06 93 84 3e 70 b0 2d 3e
       0.30095255 0.18395801 0.2589342 0.16961837
0000f0 23 3b 8a 3e 56 f8 4a 3e ab 88 83 be 60 1a 4b 3d
       0.26998243 0.19821295 -0.25690207 0.0495857
000100 c3 31 95 3e 35 b9 6e be 74 c6 f5 3e d0 70 1c bd
       0.29139528 -0.23312838 0.4800297 -0.038193524
000110 3c bf 0e be ec 53 91 3d b0 d9 ba be 16 4e 11 39
       -0.13940138 0.07096085 -0.36494207 0.00013857367
000120 d0 eb 2c bd b1 e1 68 3d 12 75 5c 3e f0 91 74 3e
       -0.042217076 0.05685586 0.21529034 0.23883796
000130 fc b3 34 3e 4f 30 ee 3d ea 3f 27 be 8b 3d 91 3d
       0.17646784 0.11630308 -0.16332975 0.070918165

fc4.bias f4 [5]
000000 7d 5b cf bd 9b c6 e0 3e b8 5f c1 bd a4 fd 2e 3e
       -0.10124872 0.43901524 -0.09442085 0.17088944
000010 45 69 c4 3d
       0.09590391
